main/eegnet.pth (torch, 15806 bytes, 18 tensors)

firstconv.0.weight f4 [8, 1, 1, 64]
0.0724093 0.17096657 0.23479058 0.2201194 0.14416502 0.22496025 0.27249858 0.18938717
0.2474638 0.24906118 0.26798928 0.21619889 0.013600643 0.13324511 0.02792325 0.026602518
0.15950646 0.0063008787 -0.08083635 -0.00748072 -0.07572748 0.024823826 -0.065806225 -0.09620136
-0.16021962 -0.099474736 -0.112642005 -0.18879603 -0.030869773 -0.099840224 -0.13691391 -0.020656452
-0.15564282 -0.017154356 -0.092230946 -0.047608048 -0.049478758 0.014185318 0.04697185 -0.19339736
0.086470515 -0.025381127 -0.09858189 0.033622447 0.11088653 -0.14087363 -0.15534358 -0.026708685
-0.01878654 -0.17388304 -0.2116711 -0.178758 -0.22000787 -0.16269003 -0.11727796 -0.08148789
0.19630487 0.103139095 -0.03833582 -0.107309364 0.11531064 0.21121165 0.048952542 -0.13961962
0.006270105 -0.038442113 -0.08140844 -0.14575557 -0.12018243 -0.22304776 -0.25866684 -0.17114618
-0.2200776 -0.100153714 0.014334031 -0.011834725 0.032955237 0.05993677 0.25344935 0.24381523
0.4100163 0.24052985 0.42846996 0.2938457 0.24820215 0.16235189 0.07925894 -0.12140586
-0.01873039 -0.16495633 -0.23060833 -0.16883893 -0.3523211 -0.28806496 -0.15794007 -0.16263363
-0.14121296 -0.0888226 0.019019594 -0.037751656 0.1812768 0.03976021 -0.02382549 0.21249849
0.14012308 -0.022469727 0.045749452 0.04266979 0.12943065 0.07471362 0.08716969 0.070547625
0.052368745 0.1279536 -0.06362607 0.12987997 -0.01889215 -0.038305264 0.10527041 -0.113392584
0.02164357 0.020708943 -0.109240845 -0.02694727 0.039536778 -0.06380601 -0.047707133 -0.11507866
0.2905917 0.3462505 0.25971282 0.18155777 0.13781245 0.28767592 -0.17584296 -0.13747662
0.016592374 0.10604719 0.15802829 0.12054972 0.11520378 0.12163037 -0.2330749 0.006999736
0.082970634 0.24928832 0.15800342 -0.06541378 -0.16406628 0.0037234914 0.15258306 -0.087686025
0.23889627 0.10659235 0.08233924 0.015914366 -0.15415841 -0.106638335 0.002762436 0.11210553
-0.11310111 -0.08740213 0.08827804 -0.015145966 0.052307885 0.0036730708 0.18531929 0.2695422
0.261902 0.18540323 0.020732308 -0.10417774 -0.0708044 -0.16678867 -0.029247083 -0.07460706
-0.15985033 -0.1679213 -0.1858953 -0.058321703 -0.08374138 -0.0030633432 -0.07662705 0.056131404
-0.123976275 0.0010951561 0.011053872 0.17586961 0.17806637 0.24204166 0.027459484 0.11819185
0.041194648 -0.06277805 -0.014044428 -0.045987528 -0.22864816 -0.041708298 0.028317224 -0.13736956
-0.030454407 -0.15201601 -0.02003392 -0.09447988 -0.033423305 -0.04324641 0.13628604 0.1830953
0.025087357 0.08611331 -0.050123163 -0.0410457 0.09724576 0.16433033 0.12469826 -0.011072829
-0.057064045 0.059075117 0.0909201 0.1483643 0.19910079 0.04210319 0.22749019 0.19634046
0.028842062 -0.035405662 -0.18491052 0.0040307604 0.060380273 0.06971529 -0.006906461 -0.18383245
0.10803757 0.019332591 0.027079068 0.17441598 -0.050501127 -0.07386784 -0.0037166725 -0.22930697
-0.26857206 -0.0044647837 -0.01721047 -0.3137359 -0.2548713 -0.20846517 0.14624017 0.2319472
0.3553457 0.09323416 0.098621644 0.032557137 -0.14338143 -0.16368482 -0.23723334 -0.25565475
00000000: 544b 943d dc11 2f3e f16c 703e fb66 613e
00000010: ff9f 133e fb5b 663e ef84 8b3e b6ee 413e
00000020: 2667 7d3e e509 7f3e e435 893e 3e63 5d3e
00000030: 3bd5 5e3c 6871 083e 4dbf e43c 86ed d93c
00000040: a955 233e 9a77 ce3b 878d a5bd d420 f5bb
00000050: 0217 9bbd 565b cb3c 6ac5 86bd 3805 c5bd
00000060: 9d10 24be 69b9 cbbd dab0 e6bd bf53 41be
00000070: 9be2 fcbc 0879 ccbd 2933 0cbe b837 a9bc
00000080: d560 1fbe 4b87 8cbc 94e3 bcbd a800 43bd
00000090: 3daa 4abd 8969 683c 8e65 403d f509 46be
000000a0: 7417 b13d 15ec cfbc 4de5 c9bd b1b7 093d
000000b0: 7a18 e33d 2d41 10be 6312 1fbe 2ccc dabc
000000c0: 3be6 99bc 650e 32be 4fc0 58be 560c 37be
000000d0: be49 61be 3798 26be 6d2f f0bd 1fe3 a6bd
000000e0: 2504 493e 973a d33d 0506 1dbd 03c5 dbbd
000000f0: fc27 ec3d de47 583e 7682 483d 72f8 0ebe
00000100: 7475 cd3b 7a75 1dbd 78b9 a6bd f340 15be
00000110: 3522 f6bd a266 64be fb6f 84be f240 2fbe
00000120: 065c 61be 641d cdbd 49d9 6a3c 6fe6 41bc
00000130: 12fc 063d 4280 753d 1dc4 813e b3aa 793e
00000140: a8ed d13e 754d 763e 6a60 db3e f272 963e
00000150: b428 7e3e 933f 263e 8352 a23d a3a3 f8bd
00000160: 7a70 99bc 50ea 28be 9724 6cbe 1de4 2cbe
00000170: 6e63 b4be 407d 93be 0bbb 21be 6e89 26be
00000180: 219a 10be a0e8 b5bd fbce 9b3c 7ba1 1abd
00000190: a0a0 393e 9adb 223d ad2d c3bc 3499 593e
000001a0: 6d7c 0f3e 6f12 b8bc c763 3b3d 85c6 2e3d
000001b0: 7889 043e 7403 993d 0686 b23d 467b 903d
000001c0: 9c80 563d 4506 033e 634e 82bd 41ff 043e
000001d0: b6c3 9abc fbe5 1cbd 0398 d73d 5f3a e8bd
000001e0: db4d b13c cda5 a93c aab9 dfbd 85c0 dcbc
000001f0: 51f1 213d baac 82bd 8e68 43bd 5cae ebbd
00000200: 6fc8 943e bf47 b13e 14f9 843e 48ea 393e
00000210: b51e 0d3e 424a 933e 2d10 34be acc6 0cbe
00000220: bbec 873c 452f d93d 2bd2 213e c6e2 f63d
00000230: f6ef eb3d 5819 f93d 30ab 6ebe 0b5e e53b
00000240: 82ec a93d 7045 7f3e a6cb 213e a9f7 85bd
00000250: fe00 28be d205 743b bc3e 1c3e bb94 b3bd
00000260: 39a1 743e 174d da3d 7aa1 a83d d85e 823c
00000270: b4db 1dbe 3365 dabd fc09 353b 9697 e53d
00000280: 8ea1 e7bd e3ff b2bd 1ecb b43d c926 78bc
00000290: cb40 563d e7b7 703b 57c4 3d3e 6f01 8a3e
000002a0: 0518 863e 58da 3d3e cdd6 a93c 245b d5bd
000002b0: e601 91bd a6ca 2abe 9497 efbc 96cb 98bd
000002c0: ceaf 23be 90f3 2bbe 565b 3ebe bde2 6ebd
000002d0: 9a80 abbd 5fc2 48bb a5ee 9cbd 0bea 653d
000002e0: 46e7 fdbd 578b 8f3a 4d1b 353c 2a17 343e
000002f0: 0857 363e c5d9 773e b6f2 e03c 920e f23d
00000300: b8bb 283d c791 80bd 9a1a 66bc 6b5d 3cbd
00000310: be22 6abe 52d6 2abd 86f9 e73c 9baa 0cbe
00000320: 857b f9bc 16aa 1bbe 2d1e a4bc ab7e c1bd
00000330: e0e6 08bd 2623 31bd 918e 0b3e 567d 3b3e
00000340: 0084 cd3c 2d5c b03d f24d 4dbd 891f 28bd
00000350: c928 c73d 3646 283e cd61 ff3d d06a 35bc
00000360: fdbb 69bd c0f8 713d 5134 ba3d d0ec 173e
00000370: 14e1 4b3e 6574 2c3d 30f3 683e 790d 493e
00000380: 3046 ec3c 8705 11bd 2f59 3dbe 7814 843b
00000390: 4e51 773d e4c6 8e3d 984f e2bb 933e 3cbe
000003a0: cd42 dd3d 625f 9e3c ecd4 dd3c 1a9a 323e
000003b0: 45da 4ebd 0648 97bd 6b93 73bb 72cf 6abe
000003c0: 4782 89be 524d 92bb f9fc 8cbc fea1 a0be
000003d0: 7e7e 82be e577 55be fcbf 153e 9183 6d3e
000003e0: dfef b53e 8df1 be3d 25fa c93d a25a 053d
000003f0: 95d2 12be fe9c 27be 4ced 72be 2ee5 82be

firstconv.1.weight f4 [8]
1.3132142 1.431206 1.4610667 1.5036846 1.2172053 1.3429973 1.108133 1.1187427
00000000: 6717 a83f c231 b73f 3c04 bb3f bd78 c03f
00000010: 62cd 9b3f 56e7 ab3f 4dd7 8d3f f632 8f3f

firstconv.1.bias f4 [8]
-0.055480856 0.06903863 -0.039569307 -0.06591613 -0.1633077 -0.0023844955 -0.048908643 0.13601293
00000000: e53f 63bd 2064 8d3d 6d13 22bd 09ff 86bd
00000010: 223a 27be 3245 1cbb 6e54 48bd f946 0b3e

firstconv.1.running_mean f4 [8]
3.1762793e-06 -6.3734734e-07 -4.5341008e-06 -6.800362e-07 7.042846e-06 -4.095234e-07 1.3972895e-06 -6.3348425e-06
00000000: 1028 5536 2d16 2bb5 a123 98b6 bb8b 36b5
00000010: 9651 ec36 78dc dbb4 808a bb35 e28f d4b6

firstconv.1.running_var f4 [8]
2.9862882e-08 1.0080942e-08 2.2883375e-08 7.8397555e-09 4.0506908e-08 1.3786859e-08 4.072812e-08 6.8298604e-08
00000000: 9642 0033 7430 2d32 1391 c432 9caf 0632
00000010: d1f9 2d33 3fdb 6c32 0bed 2e33 8eab 9233

depthwiseConv.0.weight f4 [16, 1, 64, 1]
-0.025765141 -0.19687404 0.19436164 0.056353662 -0.27529004 -0.07837373 -0.19936363 -0.08956666
0.04649548 0.25503924 0.115485616 -0.062494382 0.11195194 -0.07477068 0.11021921 0.088349536
-0.056728378 0.21810997 -0.018329278 0.019629952 0.08757766 -0.019004557 -0.21610588 -0.15137194
-0.12365348 0.018524526 0.14337316 0.0047474997 -0.03708564 -0.10553482 -0.018453358 -0.10338585
-0.022593182 -0.006879774 0.010800251 0.0032043122 -0.005421389 0.15156126 0.009037224 0.1304105
0.062234044 0.21298213 0.11576326 0.34593248 0.04319899 -0.005490669 -0.25626016 -0.014656531
-0.19654459 0.059049245 -0.24624579 -0.01502958 -0.23049693 -0.18164055 -0.09687688 -0.283622
-0.27294043 0.19152845 -0.08896828 -0.022639172 -0.06422091 0.16745262 0.1652408 0.23518333
0.123119384 0.052415255 -0.10969952 -0.35247585 -0.18193607 0.019460881 0.117947884 -0.033468146
-0.18695353 -0.3339697 -0.42756137 -0.078923665 -0.032791603 -0.030117976 0.016797144 -0.020903138
0.0031519835 -0.08348695 -0.16638401 -0.0039397986 0.028259441 -0.07702074 0.06059415 0.009672512
0.053525083 -0.012814204 -0.09110008 0.11697022 -0.02332568 0.010790851 -0.005935135 0.12638092
0.070785224 0.11157209 0.15747677 0.1311717 0.03551595 -0.14331222 -0.06497206 -0.03462517
0.021686057 -0.16298097 -0.06492962 -0.10407969 -0.19052418 -0.119607024 -0.06752772 0.1015302
0.009330541 0.16162568 0.1667525 0.044475697 0.104053624 0.1716877 0.07593209 0.23327143
0.23827828 0.22719805 0.37501964 0.19510758 0.19377613 0.17137845 -0.029891586 -0.06459149
0.046893448 0.11052688 0.029154316 0.110056154 0.15474845 -0.0883828 0.021674717 -0.035880454
-0.08911543 -0.11329532 -0.02020597 -0.0034724937 -0.04779082 -0.10893721 -0.03777062 -0.0043783067
-0.14389162 -0.10983156 -0.04993365 0.013718301 -0.10377635 0.012544879 -0.054319985 0.05941632
-0.0058757504 -0.07396284 -0.066658124 -0.024913387 0.11540115 0.043340273 -0.018810159 0.10871197
-0.10435277 -0.073503196 -0.20369758 -0.117370695 0.016436426 0.009589003 0.039454848 -0.07956842
-0.1765154 -0.25375184 -0.09521276 -0.13140051 -0.13304624 -0.092122525 0.024973951 -0.026294181
-0.16506983 0.090376705 0.04140473 0.17759983 0.18619382 0.3401428 0.31365135 0.17941912
0.1164927 0.122543186 0.44539037 0.6014777 -0.0137288235 -0.21478833 0.2491164 -0.6840494
-0.0059372084 0.19649376 0.025436813 0.16852866 -0.14946172 0.0015423408 0.13379173 0.037406255
0.06834113 0.04541637 0.07329229 -0.2494363 -0.05076147 0.14164977 0.31491095 0.31714717
0.055166543 0.0547698 -0.049712904 -0.06391158 0.20771009 0.05274575 -0.09479983 0.14163068
-0.06740563 -0.06456228 0.24609812 -0.10704452 -0.050115712 0.111674584 -0.19820607 0.05831086
-0.07353507 0.08749081 0.004299481 -0.19430953 0.1592937 -0.029543966 -0.0012163704 -0.03216113
-0.0998331 0.10362963 0.10626981 -0.087299004 0.22507767 0.038485285 0.049778346 0.00963842
0.068638675 0.055532664 -0.08512272 -0.23965552 -0.095931984 0.010953472 0.08824578 0.02528994
-0.086278886 -0.37188497 0.15290591 0.24574478 -0.39930147 0.053157356 -0.24453779 -0.2758596
00000000: 6b11 d3bc 5999 49be bd06 473e 19d3 663d
00000010: d1f2 8cbe 6882 a0bd fb25 4cbe ba6e b7bd
00000020: 0b72 3e3d 8194 823e b983 ec3d 1cfa 7fbd
00000030: 0f47 e53d 5f21 99bd 9cba e13d 9af0 b43d
00000040: 045c 68bd 3858 5f3e 4827 96bc fece a03c
00000050: eb5b b33d 72af 9bbc dc4a 5dbe 3f01 1bbe
00000060: 093e fdbd bfc0 973c 6ad0 123e ea90 9b3b
00000070: 1de7 17bd a422 d8bd 7f2b 97bc f6bb d3bd
00000080: 5615 b9bc ba6f e1bb 89f3 303c 70ff 513b
00000090: e8a5 b1bb e032 1b3e dd10 143c 558a 053e
000000a0: 20e9 7e3d fd17 5a3e 4a15 ed3d 101e b13e
000000b0: 6df1 303d 12eb b3bb 8834 83be f221 70bc
000000c0: fc42 49be 9fdd 713d db27 7cbe a13e 76bc
000000d0: 6307 6cbe fbff 39be 6367 c6bd e736 91be
000000e0: d9be 8bbe 0920 443e 0035 b6bd c975 b9bc
000000f0: 4186 83bd b378 2b3e e234 293e e6d3 703e
00000100: 0426 fc3d 61b1 563d 24aa e0bd b777 b4be
00000110: 734d 3abe 6d6c 9f3c a98e f13d e515 09bd
00000120: bf70 3fbe 14fe aabe 53e9 dabe bba2 a1bd
00000130: 7d50 06bd f9b9 f6bc 2a9a 893c 0f3d abbc
00000140: 8291 4e3b 35fb aabd 9260 2abe 6d19 81bb
00000150: 5880 e73c 0dbd 9dbd 9231 783d 7579 1e3c
00000160: 1e3d 5b3d abf2 51bc ae92 babd 158e ef3d
00000170: 7f15 bfbc 1ccc 303c 857b c2bb 006a 013e
00000180: d8f7 903d e87f e43d 9741 213e e051 063e
00000190: 2c79 113d 70c0 12be 1210 85bd 1fd3 0dbd
000001a0: f5a6 b13c 7ce4 26be d2f9 84bd bc27 d5bd
000001b0: c518 43be 87f4 f4bd f94b 8abd 11ef cf3d
000001c0: 20df 183c 3481 253e 2bc1 2a3e 262c 363d
000001d0: 111a d53d e7ce 2f3e 4982 9b3d b5de 6e3e
000001e0: 39ff 733e 9ba6 683e 9302 c03e 48ca 473e
000001f0: 406d 463e d57d 2f3e 33df f4bc 8b48 84bd
00000200: 5813 403d eb5b e23d 08d5 ee3c 1f65 e13d
00000210: 6176 1e3e 0b02 b5bd 2d8f b13c 62f7 12bd
00000220: 2782 b6bd 6007 e8bd fe86 a5bc c792 63bb
00000230: 4fc0 43bd 791a dfbd 5eb5 1abd e677 8fbb
00000240: 5358 13be 5eef e0bd 3a87 4cbd bac2 603c
00000250: b288 d4bd 0989 4d3c a27e 5ebd 875e 733d
00000260: 5e89 c0bb d479 97bd 0e84 88bd 2917 ccbc
00000270: 7057 ec3d 9285 313d c317 9abc 62a4 de3d
00000280: e8b6 d5bd d888 96bd 1996 50be 0c60 f0bd
00000290: afa5 863c 321b 1d3c 689b 213d c5f4 a2bd
000002a0: 74c0 34be c3eb 81be e8fe c2bd db8d 06be
000002b0: 463d 08be bcaa bcbd 2c96 cc3c e566 d7bc
000002c0: 1108 29be 6c17 b93d 0298 293d bbdc 353e
000002d0: 98a9 3e3e 3227 ae3e e996 a03e a5b9 373e
000002e0: ba93 ee3d ecf7 fa3d 350a e43e 71fa 193f
000002f0: dcee 60bc 79f1 5bbe 5f18 7f3e dd1d 2fbf
00000300: ea8c c2bb a935 493e dd60 d03c c792 2c3e
00000310: 7e0c 19be 5f28 ca3a b300 093e 4d37 193d
00000320: 6ff6 8b3d 8406 3a3d 451a 963d 3b6c 7fbe
00000330: 42eb 4fbd a30c 113e 023c a13e 1d61 a23e
00000340: 50f6 613d 4c56 603d c29f 4bbd 13e4 82bd
00000350: f4b1 543e ed0b 583d 6a26 c2bd a207 113e
00000360: f70b 8abd 3b39 84bd 2501 7c3e 283a dbbd
00000370: 2246 4dbd a5b5 e43d 88f6 4abe 5ed7 6e3d
00000380: 8e99 96bd 622e b33d a9e2 8c3b 14f9 46be
00000390: e31d 233e 3006 f2bc 9e6e 9fba 64bb 03bd
000003a0: 4c75 ccbd c53b d43d fca3 d93d d2c9 b2bd
000003b0: c37a 663e bfa2 1d3d 61e4 4b3d 77ea 1d3c
000003c0: 6f92 8c3d 3876 633d d254 aebd 4268 75be
000003d0: fd77 c4bd 3176 333c 34ba b43d d92c cf3c
000003e0: fcb2 b0bd b567 bebe 5e93 1c3e 85a4 7b3e
000003f0: 3e71 ccbe 87bb 593d 1d68 7abe 783d 8dbe

depthwiseConv.1.weight f4 [16]
1.3246163 1.379653 1.4283096 1.3404452 1.5481629 1.3679453 1.3325402 1.4855539
1.2623452 1.150866 1.4974493 1.3252423 1.1329181 1.168532 1.0170367 1.0794933
00000000: 078d a93f 7898 b03f d9d2 b63f b593 ab3f
00000010: 342a c63f d518 af3f ad90 aa3f a126 be3f
00000020: 8794 a13f 944f 933f 6bac bf3f 8aa1 a93f
00000030: 7603 913f 7592 953f 422e 823f d62c 8a3f

depthwiseConv.1.bias f4 [16]
-0.08270719 -0.044622615 -0.3808346 -0.03843856 -0.2914823 -0.19414549 -0.07695064 0.023760563
-0.2723286 -0.15452975 -0.2060439 -0.566132 0.04832256 -0.4886963 -0.12837496 -0.15139686
00000000: 6362 a9bd 34c6 36bd c1fc c2be c071 1dbd
00000010: 2b3d 95be 13ce 46be 4c98 9dbd 83a5 c23c
00000020: a76e 8bbe 0c3d 1ebe 2cfd 52be 07ee 10bf
00000030: e0ed 453d 6736 fabe ba74 03be c707 1bbe

depthwiseConv.1.running_mean f4 [16]
0.02720824 -0.020556338 -0.0027364756 0.030902466 -0.016161518 0.02586129 0.0040946864 -0.021448681
-0.077258214 0.072422564 0.0015931497 -0.0008771594 0.020930547 -0.062356308 -0.03684368 0.009253605
00000000: d1e3 de3c c465 a8bc 7156 33bb 2b27 fd3c
00000010: 2965 84bc 0edb d33c b82c 863b 25b5 afbc
00000020: 8e39 9ebd 4852 943d 3cd1 d03a 2cf1 65ba
00000030: 8a76 ab3c 5469 7fbd 66e9 16bd 6f9c 173c

depthwiseConv.1.running_var f4 [16]
0.006940589 0.002015592 0.0010808219 0.000935297 0.006306973 0.0038219392 0.0010616829 0.0008514933
0.00480013 0.0033754716 0.0011451717 0.0007339959 0.002553815 0.0050257933 0.0068725934 0.0042120013
00000000: e16d e33b 0618 043b 5daa 8d3a b82e 753a
00000010: b9aa ce3b 8079 7a3b 2b28 8b3a c036 5f3a
00000020: 694a 9d3b 0437 5d3b 9619 963a a269 403a
00000030: e85d 273b 69af a43b 7e33 e13b d404 8a3b

separableConv.0.weight f4 [16, 1, 1, 16]
-0.27444255 -0.30828172 -0.032879826 -0.19338775 0.077052206 -0.0961715 -0.23395202 0.099165775
0.1363924 0.18206835 -0.09618303 0.17329316 -0.14234182 0.13509995 -0.3451023 -0.23068316
0.090442516 0.18259557 -0.3145023 -0.3077503 -0.12476403 0.12930748 0.087460704 0.025976202
-0.1799961 0.01239742 -0.12076997 0.18229437 -0.15074001 -0.13040625 0.0055782995 -0.39958596
0.3557013 -0.038248785 -0.071090005 0.2791247 -0.15528616 0.024494618 0.17535721 0.37005702
0.2649195 -0.10357586 -0.07877955 0.09005869 -0.34533995 -0.05638048 -0.14232954 -0.42398822
-0.11130493 -0.2712836 -0.022815572 -0.015600495 -0.09490919 -0.063028984 0.35185504 0.10619068
-0.089815564 -0.1520456 0.18241364 0.31496182 0.3040732 0.14322719 -0.22877535 -0.2502248
-0.23136581 -0.23297101 0.10590198 0.06776431 0.35818675 0.22783071 0.2539506 0.04227966
0.40898004 -0.11405297 -0.03419779 -0.15596125 -0.1967889 0.15441374 -0.08196231 0.0035040416
0.02833889 -0.21358329 -0.19557674 0.22056943 -0.10379179 0.36540812 0.12502187 0.0903758
0.17451584 0.31406948 0.05935628 -0.07222686 -0.22916766 -0.04449124 -0.25188375 0.0029085418
0.03428695 0.42830482 0.24460919 -0.19942 -0.05391127 -0.04919403 -0.1755926 -0.097234815
-0.09639387 -0.020782935 0.048008632 -0.09140595 -0.20447859 -0.28651658 -0.35673308 -0.06711645
-0.41846594 0.04989546 0.03749819 -0.39023778 -0.19167322 0.08586797 -0.01534841 -0.14026874
0.25775605 -0.06642952 -0.1516291 -0.042317968 -0.180838 -0.04873016 0.049053323 0.21805479
-0.10914482 -0.15113212 -0.17778508 -0.01707373 0.22814481 0.13731018 0.108557165 0.17977908
0.32451108 0.24528077 0.30330265 -0.12059782 0.10614605 0.068892226 -0.08049015 -0.17356701
0.1025236 -0.29483512 -0.13161393 -0.22881784 -0.30331993 -0.25297043 -0.048268277 0.2614879
-0.03696728 0.0014229335 -0.21797942 0.1921493 -0.1677162 -0.02492304 -0.03549351 0.017959645
0.18801895 0.01663033 -0.19342206 -0.246081 0.26620302 -0.2541969 -0.20209968 0.18969211
-0.036925267 -0.2127652 0.03611024 -0.22782561 -0.11870353 -0.22900876 0.08974269 -0.4449656
0.016644528 -0.11268246 -0.11204686 0.34840587 -0.13993648 -0.014681483 -0.4386567 -0.27726093
-0.112608775 0.16220726 0.21141718 0.16242158 -0.07673494 0.2267042 0.3360308 -0.09969435
-0.22830988 -0.19723131 -0.08521289 -0.12586619 -0.05969892 -0.23466884 0.115703024 0.034560777
-0.13649327 0.05408822 0.06661755 -0.26428238 0.10977344 0.16324672 0.1142686 0.18629308
-0.19940262 0.085895106 0.004108073 -0.08564222 0.0841092 -0.25928128 0.059983052 -0.20655908
-0.21711956 -0.20611215 -0.2566442 -0.07426672 0.054725096 0.12649363 0.12812068 0.116424255
0.100969166 -0.039231494 0.23339133 0.28827253 0.26726824 0.080506906 0.018222176 0.07930987
-0.27729252 -0.25672355 0.16491996 0.048127916 -0.04828155 0.13362244 0.1271573 0.07301234
-0.35735193 -0.23300335 -0.17017296 -0.09527379 -0.0006579095 -0.19141822 0.22263998 -0.25718966
-0.043683734 0.21042195 -0.27485886 0.00669389 0.25051573 -0.10428702 0.19129431 0.15920271
00000000: bc83 8cbe 1ad7 9dbe ffac 06bd 7007 46be
00000010: 8ccd 9d3d 90f5 c4bd 1e91 6fbe 6d17 cb3d
00000020: 73aa 0b3e 2070 3a3e 9cfb c4bd c373 313e
00000030: 0ec2 11be a457 0a3e 40b1 b0be 3538 6cbe
00000040: ed39 b93d 55fa 3a3e 7206 a1be 7391 9dbe
00000050: 4984 ffbd 2e69 043e 991e b33d 0bcc d43c
00000060: e650 38be 8c1e 4b3c 3f56 f7bd 60ab 3a3e
00000070: 975b 1abe 3789 05be 2bca b63b 8896 ccbe
00000080: 7b1e b63e c2aa 1cbd a397 91bd 6fe9 8e3e
00000090: 5603 1fbe f0a8 c83c d790 333e 1d78 bd3e
000000a0: 87a3 873e 951f d4bd 2c57 a1bd b170 b83d
000000b0: 66d0 b0be 38ef 66bd d6be 11be fc14 d9be
000000c0: d7f3 e3bd afe5 8abe b9e7 babc 3899 7fbc
000000d0: c05f c2bd 5715 81bd 5826 b43e 807a d93d
000000e0: 39f1 b7bd d7b1 1bbe a4ca 3a3e ad42 a13e
000000f0: 7caf 9b3e 26aa 123e 1644 6abe 771d 80be
00000100: 29eb 6cbe f48f 6ebe 23e3 d83d 04c8 8a3d
00000110: 4164 b73e 744c 693e d005 823e 702d 2d3d
00000120: d565 d13e 9b94 e9bd fb12 0cbd 4eb4 1fbe
00000130: 0883 49be a31e 1e3e dbdb a7bd 10a4 653b
00000140: f626 e83c 94b5 5abe 4545 48be f4dc 613e
00000150: ca90 d4bd c616 bb3e bc05 003e f316 b93d
00000160: 48b4 323e b7cd a03e 921f 733d adeb 93bd
00000170: edaa 6abe 723c 36bd e8f6 80be 3c9d 3e3b
00000180: 7970 0c3d c54a db3e d57a 7a3e c234 4cbe
00000190: 10d2 5cbd ae7f 49bd 8cce 33be 0c23 c7bd
000001a0: 266a c5bd f940 aabc b3a4 443d 0b33 bbbd
000001b0: d662 51be 4db2 92be b8a5 b6be 5974 89bd
000001c0: 2b41 d6be 2f5f 4c3d b497 193d 3fcd c7be
000001d0: fc45 44be 8cdb af3d e677 7bbc 9ca2 0fbe
000001e0: 9af8 833e 330c 88bd a944 1bbe 9b55 2dbd
000001f0: 992d 39be 4799 47bd 23ec 483d c149 5f3e
00000200: 5287 dfbd 61c2 1abe 4b0d 36be 35de 8bbc
00000210: cb9e 693e 0a9b 0c3e 3853 de3d 0218 383e
00000220: 5126 a63e e22a 7b3e 7c4a 9b3e fdfb f6bd
00000230: 1a63 d93d 5e17 8d3d 05d8 a4bd 8dbb 31be
00000240: e5f7 d13d a1f4 96be cdc5 06be 394f 6abe
00000250: c04c 9bbe 5785 81be f5b4 45bd bee1 853e
00000260: 016b 17bd ba81 ba3a ff35 5fbe c9c2 443e
00000270: ccbd 2bbe 672b ccbc a561 11bd 1b20 933c
00000280: 0a88 403e 543c 883c 6f10 46be a8fc 7bbe
00000290: c34b 883e 1926 82be 38f3 4ebe a63e 423e
000002a0: f33e 17bd 1fdf 59be 55e8 133d 1e4b 69be
000002b0: d61a f3bd 4681 6abe 04cb b73d 88d2 e3be
000002c0: 1b5a 883c 10c6 e6bd d378 e5bd 4162 b23e
000002d0: 824b 0fbe 9a8a 70bc 9c97 e0be 25f5 8dbe
000002e0: 6e9f e6bd a919 263e bf7d 583e d851 263e
000002f0: 3527 9dbd 2525 683e 3b0c ac3e 8d2c ccbd
00000300: 11ca 69be 01f7 49be 1884 aebd 11e3 00be
00000310: db86 74bd 074d 70be b5f5 ec3d 9a8f 0d3d
00000320: e4c4 0bbe 9c8b 5d3d c86e 883d 0550 87be
00000330: e6d0 e03d 262a 273e a805 ea3d 9dc3 3e3e
00000340: 3330 4cbe c6e9 af3d 049d 863b 3065 afbd
00000350: 7241 ac3d 84c0 84be cab0 753d 3984 53be
00000360: 9754 5ebe 100f 53be de66 83be 2619 98bd
00000370: 6c27 603d 8c87 013e 1132 033e d76f ee3d
00000380: ecc8 ce3d 34b1 20bd 23fe 6e3e 7598 933e
00000390: 62d7 883e cee0 a43d ac46 953c 376d a23d
000003a0: 49f9 8dbe 4571 83be c7e0 283e c721 453d
000003b0: e0c2 45bd 52d4 083e 8635 023e 7e87 953d
000003c0: d5f6 b6be 6e98 6ebe d241 2ebe e81e c3bd
000003d0: 8f77 2cba 2303 44be bcfb 633e 5dae 83be
000003e0: b7ed 32bd da78 573e 4dba 8cbe 6b58 db3b
000003f0: 9943 803e 6f94 d5bd a8e2 433e 0906 233e

separableConv.1.weight f4 [16, 16, 1, 1]
-0.024988625 -0.021399165 0.287147 0.24412988 -0.22811429 0.1497385 -0.13395262 -0.03317641
0.07392126 0.2938537 0.07529361 -0.37276724 -0.121480875 -0.23929584 -0.17722642 -0.18252273
-0.37214848 -0.1910169 0.26061392 0.09519153 0.0454003 -0.12113117 -0.08453389 0.04414077
-0.41018742 -0.085155405 0.02503538 -0.13555475 -0.315949 -0.100340046 0.004174664 -0.037951384
-0.076927066 0.10361344 -0.09989927 -0.10180853 0.20948899 0.001669734 -0.15523222 0.14201903
0.091718994 0.11570122 -0.38841054 0.054159883 -0.0390902 0.13648906 -0.41377205 0.06518659
0.1063972 -0.23824565 0.15356407 0.08541038 -0.27587226 -0.041674543 -0.17902833 0.37002105
-0.09028812 -0.5398442 -0.0201067 0.01487556 0.0059601963 -0.02633163 0.113580935 -0.059126776
0.0122657595 0.11108338 -0.38349527 -0.017112395 0.1480528 -0.21636748 -0.18433982 -0.22260238
0.08645807 0.077448696 -0.067363836 -0.11588095 -0.22032312 0.18796146 -0.13209751 0.21782698
0.13863188 0.12819493 0.024371022 0.05724772 -0.20260549 -0.3885868 -0.19963779 0.10903044
-0.071859665 -0.24732392 0.29611504 -0.08453425 0.27516866 -0.17235623 0.24245635 0.06995678
-0.23231214 0.20679438 -0.1276598 -0.33403668 0.22324426 0.28267333 0.25689688 -0.38923895
0.09704464 0.039516512 -0.011871976 0.23257984 -0.17076044 0.17749634 0.033323668 0.07009273
0.038910266 -0.15108274 0.5097312 0.30672678 -0.33976692 0.018362895 -0.20629871 -0.031640805
-0.053743195 0.030985706 0.015349598 -0.27269766 -0.11227672 -0.17195459 -0.3092342 -0.11681275
-0.19800521 0.13473614 -0.23508646 0.0790752 0.3338886 -0.051428795 0.04178895 0.0034817054
0.035517685 0.10616737 -0.0914 0.25356185 0.09345798 0.05988074 -0.20887773 0.1863076
-0.17349817 0.12887025 -0.13153733 -0.06083416 0.28957036 -0.05355812 -0.027479362 -0.20488049
0.30448127 0.19668543 -0.14497194 0.44727114 0.13068688 0.07676082 -0.41024122 0.08141446
-0.26450703 0.17160696 -0.21444166 -0.07851758 0.18165204 0.2263369 0.22576632 -0.28562504
0.041006923 0.09057248 -0.020385217 0.21136987 -0.038149368 0.10390166 0.05622598 0.08529404
-0.035023443 -0.16371167 0.51923984 0.101015136 -0.20604774 -0.075349666 -0.23065928 0.11040311
-0.067341134 -0.30830085 0.31888577 -0.08738195 0.03715526 -0.14601201 0.07381821 -0.16352724
0.02462145 -0.10186552 0.03281107 -0.42034775 0.2204159 0.03662674 -0.19812097 -0.024209768
0.16869356 0.107493155 -0.25228122 -0.045746043 0.06138238 0.27463353 0.119192906 0.37701136
-0.23124383 0.07428628 0.04981865 -0.2343181 0.14073771 0.18328364 0.14319469 -0.07030079
0.3321859 -0.08381211 0.026779793 0.2794066 0.096203744 0.0017469458 -0.07746849 -0.16995376
0.16702029 -0.2278637 0.19632056 0.3237573 -0.32125908 -0.07617785 -0.24744698 -0.032344062
-0.11038549 0.18504924 -0.0039232816 -0.25156218 -0.13318631 -0.19216602 -0.034848016 -0.10895872
-0.2642806 0.36938775 0.071786255 -0.21087387 -0.084697425 0.22297414 0.15174472 -0.2041736
-0.03588232 0.27457595 -0.044420112 0.06832381 -0.4064592 0.07087392 -0.018629475 -0.121663794
00000000: f2b4 ccbc 4d4d afbc ee04 933e 2ffd 793e
00000010: cb96 69be 0d55 193e e02a 09be fde3 07bd
00000020: 0864 973d fe73 963e 8933 9a3d 59db bebe
00000030: f7ca f8bd f809 75be d87a 35be 3de7 3abe
00000040: 3f8a bebe ef99 43be 306f 853e c7f3 c23d
00000050: aaf5 393d 9e13 f8bd 1b20 adbd f4cc 343d
00000060: 1604 d2be f565 aebd ff16 cd3c ddce 0abe
00000070: 11c4 a1be 157f cdbd 9fcb 883b e972 1bbd
00000080: f08b 9dbd 4933 d43d fd97 ccbd fe80 d0bd
00000090: 4884 563e fada da3a 32f5 1ebe 706d 113e
000000a0: 2bd7 bb3d c3f4 ec3d bfdd c6be c1d6 5d3d
000000b0: 0c1d 20bd cac3 0b3e eed9 d3be 8c80 853d
000000c0: c6e6 d93d abf6 73be e63f 1d3e a3eb ae3d
000000d0: 213f 8dbe edb2 2abd 3453 37be 6673 bd3e
000000e0: fae8 b8bd 3b33 0abf ceb6 a4bc 9fb8 733c
000000f0: c04d c33b 6eb5 d7bc 1f9d e83d eb2e 72bd
00000100: 53f6 483c af7f e33d 7e59 c4be 4b2f 8cbc
00000110: 279b 173e 708f 5dbe 94c3 3cbe e1f1 63be
00000120: ee10 b13d 6c9d 9e3d 0df6 89bd fe52 edbd
00000130: 629c 61be f878 403e 9244 07be 090e 5f3e
00000140: 84f5 0d3e 8845 033e bda5 c73c 967c 6a3d
00000150: d077 4fbe d9f4 c6be d96d 4cbe 5a4b df3d
00000160: 292b 93bd 7b42 7dbe 649c 973e 4b20 adbd
00000170: e8e2 8c3e 277e 30be 7a46 783e 8045 8f3d
00000180: 3ce3 6dbe e8c1 533e 40b9 02be db06 abbe
00000190: 259a 643e 8fba 903e fd87 833e 544a c7be
000001a0: 57bf c63d 11dc 213d ad82 42bc 6929 6e3e
000001b0: d3db 2ebe 9ac1 353e 667e 083d c78c 8f3d
000001c0: 5f60 1f3d 6fb5 1abe be7d 023f 4b0b 9d3e
000001d0: eef5 adbe c86d 963c f83f 53be ca99 01bd
000001e0: d321 5cbd bcd5 fd3c e17c 7b3c 079f 8bbe
000001f0: 56f1 e5bd dd14 30be f253 9ebe 863b efbd
00000200: e1c1 4abe 45f8 093e 81ba 70be 2ef2 a13d
00000210: 72f3 aa3e 00a7 52bd e42a 2b3d 532d 643b
00000220: fe7a 113d 476e d93d ec2f bbbd dcd2 813e
00000230: e666 bf3d 8245 753d 0be4 55be 6bc7 3e3e
00000240: 81a9 31be 90f6 033e b9b1 06be 3d2d 79bd
00000250: 9142 943e c25f 5bbd 661c e1bc 31cc 51be
00000260: f8e4 9b3e e867 493e 8673 14be b900 e53e
00000270: c8d2 053e c734 9d3d 230b d2be a0bc a63d
00000280: 776d 87be bcb9 2f3e 9896 5bbe d3cd a0bd
00000290: fe02 3a3e dcc4 673e 492f 673e 723d 92be
000002a0: e0f6 273d 107e b93d e6fe a6bc 5871 583e
000002b0: 8342 1cbd 65ca d43d 374d 663d a4ae ae3d
000002c0: be74 0fbd 08a4 27be e7ec 043f 06e1 ce3d
000002d0: 2efe 52be ed50 9abd f231 6cbe 071b e23d
000002e0: 26ea 89bd 9cd9 9dbe ff44 a33e 4ff5 b2bd
000002f0: 1d30 183d 2c84 15be 002e 973d af73 27be
00000300: ecb2 c93c df9e d0bd e764 063d d237 d7be
00000310: b5b4 613e ec05 163d 39e0 4abe 9053 c6bc
00000320: 01be 2c3e 5f25 dc3d 012b 81be 3460 3bbd
00000330: 176c 7b3d c49c 8c3e 691b f43d a207 c13e
00000340: 2fcb 6cbe 6823 983d a40e 4c3d 16f1 6fbe
00000350: 8c1d 103e b5ae 3b3e a1a1 123e dcf9 8fbd
00000360: 4514 aa3e afa5 abbd 4c61 db3c 620e 8f3e
00000370: 7806 c53d c6f9 e43a cda7 9ebd 5c08 2ebe
00000380: 5e07 2b3e 1a55 69be 4208 493e 84c3 a53e
00000390: 127c a4be 2203 9cbd be62 7dbe 357b 04bd
000003a0: ca11 e2bd 8c7d 3d3e df8e 80bb c2cc 80be
000003b0: fe61 08be 2bc7 44be cbbc 0ebd c025 dfbd
000003c0: c94f 87be 6420 bd3e ac04 933d 52ef 57be
000003d0: d875 adbd 5553 643e f862 1b3e e212 51be
000003e0: 57f9 12bd 3895 8c3e ddf1 35bd 5bed 8b3d
000003f0: 6c1b d0be 5926 913d d79c 98bc de2a f9bd

separableConv.2.weight f4 [16]
1.8710104 1.5911844 1.9980589 1.7088238 1.7053298 1.6092716 2.0566182 1.9475752
1.8239269 1.9121482 2.0988603 1.8830348 1.5737367 1.8508571 1.7833624 1.8977284
00000000: 457d ef3f eeab cb3f 65c0 ff3f bdba da3f
00000010: 3f48 da3f 9dfc cd3f a29f 0340 254a f93f
00000020: 7076 e93f 46c1 f43f ba53 0640 4907 f13f
00000030: 3470 c93f e3e8 ec3f 3845 e43f c4e8 f23f

separableConv.2.bias f4 [16]
0.011511751 0.21486875 0.27679136 0.23068924 0.32519192 -0.24038449 0.11518974 0.13011697
0.25669166 0.30589128 0.01250339 0.19299829 0.3331108 0.27267456 0.15760908 0.012484903
00000000: c99b 3c3c 8e06 5c3e 99b7 8d3e cd39 6c3e
00000010: 8e7f a63e 5a27 76be 99e8 eb3d 623d 053e
00000020: 176d 833e c89d 9c3e 05db 4c3c 58a1 453e
00000030: 808d aa3e 009c 8b3e 4664 213e 7b8d 4c3c

separableConv.2.running_mean f4 [16]
-0.025789548 0.08375053 0.047335103 -0.028810646 0.10914951 -0.12087823 0.10809776 0.0070228428
0.02093113 0.07097507 0.0816268 -0.0323758 0.09376617 0.019179875 0.016031506 0.04769859
00000000: 9a44 d3bc 6685 ab3d 74e2 413d 4e04 ecbc
00000010: c789 df3d 018f f7bd 5c62 dd3d e01f e63b
00000020: c377 ab3c 615b 913d f42b a73d 7d9c 04bd
00000030: 7a08 c03d 1d1f 9d3c 8154 833c 995f 433d

separableConv.2.running_var f4 [16]
0.42956966 0.54895043 0.38283086 0.672443 0.3807214 0.38791713 0.6151336 0.62725675
0.40112233 0.76766723 0.35389838 0.67223483 0.5645513 0.374473 0.46334526 0.39675936
00000000: 8ef0 db3e 0488 0c3f 6802 c43e 3925 2c3f
00000010: eaed c23e 139d c63e 6579 1d3f e693 203f
00000020: e85f cd3e d785 443f 2b32 b53e 9517 2c3f
00000030: 6f86 103f edba bf3e 973b ed3e 0b24 cb3e

Dense.weight f4 [3, 64]
-0.16136003 -0.5430167 -0.6327176 0.456661 -0.75899374 -0.579305 -0.7961909 -0.28971145
-0.36860168 -0.5657105 -0.30692026 -0.80504125 -1.4452161 -0.990234 -1.0471405 -1.2308261
-1.2992761 -1.6229135 -0.8468464 -1.461727 -1.0569292 -0.78459823 -0.9213444 -1.4154565
0.1696976 -0.27348816 0.11530302 -0.13251466 -0.7865784 -1.0942376 -0.86840326 -0.26661322
-0.9157052 -0.87273246 -0.77545553 -1.2941875 -0.5123001 -0.52784866 -0.45535856 -1.054991
-0.08517702 -0.34597173 -0.09433875 -0.5585619 -2.1083446 -1.2881163 -1.3166834 -0.82572037
-0.56719327 -0.8022136 -0.7510435 -0.72748226 -0.34580624 0.080878906 -0.42527324 -0.15074784
-0.6246227 -1.1432064 -0.96082634 -0.8040484 -0.4986892 -0.85964966 -0.47718883 -0.13383503
0.37801576 -0.22381726 -0.07881884 0.4099617 0.4726809 -0.12810186 0.09928231 0.28426132
-0.006059398 0.20125355 0.548639 0.0771084 0.63520163 0.15715413 0.14493921 0.08988474
0.05371033 -0.01777913 0.5315045 -0.013219179 0.63680106 0.10304257 0.00025402775 -0.28413197
-0.56830245 0.020986399 0.4736758 0.18643418 0.72838837 -0.16947441 -0.026940392 0.25986966
-0.13108969 0.36422053 0.39707702 0.003685922 -0.20569712 0.22842462 0.3935943 0.08451065
-0.5243891 0.16651028 0.31654602 0.24078996 0.51694065 0.054028288 0.013359193 0.07357469
0.07466506 0.15702136 0.38267067 0.25669295 -0.28663725 0.46755612 0.11494459 0.43703336
0.66868156 -0.15158966 0.11619608 0.16700797 -0.4794852 -0.03282749 0.21528074 0.44785392
-0.6016777 0.3901498 0.16335252 -0.24769025 -0.62963355 0.06997306 0.036117595 -0.2212087
0.09644611 -0.26457965 -0.5270202 -0.15980883 -0.40128246 -0.112565614 0.1868489 0.18355797
0.08631548 0.022032822 -0.5103644 -0.0154875545 -0.41386303 -0.12106316 0.19590236 0.41585845
0.6090425 -0.080079116 -0.41241875 -0.22134069 -0.6942213 0.25330108 0.087199435 -0.104316115
0.31580183 -0.32246307 -0.28120878 -0.07493088 0.3631923 -0.2248611 -0.49763873 -0.13108927
0.7023345 0.035467945 -0.49300638 -0.12498793 -0.59979934 0.093131915 0.15119763 -0.0005654762
0.16074644 -0.20649043 -0.39255697 0.022906696 0.4761183 -0.34500995 -0.06786916 -0.26964775
-0.6194695 0.32421649 0.14981332 0.009638743 0.3113689 0.27155346 -0.07462315 -0.46131286
00000000: 903b 25be 2403 0bbf c8f9 21bf 78cf e93e
00000010: 6a4d 42bf 554d 14bf 2bd3 4bbf 0f55 94be
00000020: 5cb9 bcbe 67d2 10bf a724 9dbe 2f17 4ebf
00000030: d7fc b8bf fa7f 7dbf b308 86bf b68b 9dbf
00000040: ae4e a6bf a1bb cfbf edca 58bf df19 bbbf
00000050: 7549 87bf 6edb 48bf 3add 6bbf ae2d b5bf
00000060: 35c5 2d3e a406 8cbe fd23 ec3d ecb1 07be
00000070: 345d 49bf fa0f 8cbf ad4f 5ebf 8781 88be
00000080: a86b 6abf 656b 5fbf 4184 46bf f0a7 a5bf
00000090: 1926 03bf 1721 07bf c224 e9be f209 87bf
000000a0: 4a71 aebd 3523 b1be ad34 c1bd eafd 0ebf
000000b0: 1eef 06c0 ffe0 a4bf 1589 a8bf 6962 53bf
000000c0: 9433 11bf df5d 4dbf 6344 40bf 473c 3abf
000000d0: 840d b1be d7a3 a53d 6abd d9be a45d 1abe
000000e0: 46e7 1fbf 9654 92bf b7f8 75bf 1ed6 4dbf
000000f0: 3154 ffbe 0012 5cbf 1852 f4be 0d0c 09be
00000100: 488b c13e 5a30 65be c66b a1bd 80e6 d13e
00000110: 3b03 f23e 222d 03be 8654 cb3d b38a 913e
00000120: ea8d c6bb 6915 4e3e 9b73 0c3f 02eb 9d3d
00000130: 939c 223f 03ed 203e f26a 143e 7e15 b83d
00000140: 5dff 5b3d 8aa5 91bc ae10 083f 4195 58bc
00000150: 6505 233f fc07 d33d 072f 8539 bf79 91be
00000160: 457c 11bf abeb ab3c a285 f23e 9ae8 3e3e
00000170: a977 3a3f b38a 2dbe 19b2 dcbc a30d 853e
00000180: 603c 06be 1d7b ba3e ae4d cb3e 828f 713b
00000190: 44a2 52be 25e8 693e 3185 c93e eb13 ad3d
000001a0: 5d3e 06bf ac81 2a3e 5212 a23e a591 763e
000001b0: 3956 043f c44c 5d3d 84e0 5a3c 54ae 963d
000001c0: ffe9 983d 35ca 203e 69ed c33e 426d 833e
000001d0: 1ec2 92be 8463 ef3e 1268 eb3d d6c2 df3e
000001e0: b72e 2b3f 523a 1bbe 36f8 ed3d 2304 2b3e
000001f0: 167f f5be 1e76 06bd 8e72 5c3e 1c4d e53e
00000200: 8d07 1abf b7c1 c73e e245 273e 83a2 7dbe
00000210: aa2f 21bf 094e 8f3d 0bf0 133d 8984 62be
00000220: 8a85 c53d fc76 87be ccea 06bf eda4 23be
00000230: e574 cdbe cd88 e6bd 5155 3f3e 9ff6 3b3e
00000240: 2cc6 b03d 2d7e b43c 3ea7 02bf 83bf 7dbc
00000250: dbe5 d3be f6ef f7bd a19a 483e 66eb d43e
00000260: 36ea 1b3f 8500 a4bd 8d28 d3be 22a7 62be
00000270: 7db8 31bf aeb0 813e 9e95 b23d b0a3 d5bd
00000280: c7b0 a13e e119 a5be 99fa 8fbe 5c75 99bd
00000290: 57f4 b93e fd41 66be 81ca febe 443c 06be
000002a0: 32cc 333f d646 113d 556b fcbe acf9 ffbd
000002b0: 738c 19bf f2bb be3d 8dd3 1a3e 773c 14ba
000002c0: b79a 243e 3a72 53be 3afd c8be d3a6 bb3c
000002d0: c7c5 f33e 25a5 b0be fcfe 8abd 450f 8abe
000002e0: 8e95 1ebf b4ff a53e aa68 193e d1eb 1d3c
000002f0: bf6b 9f3e 0e09 8b3e 06d4 98bd 3331 ecbe

Dense.bias f4 [3]
-1.2220397 0.5936347 -0.34475213
00000000: cc6b 9cbf 72f8 173f 5a83 b0be
