main/eegnet.pth (torch, 15806 bytes, 18 tensors)

firstconv.0.weight f4 [8, 1, 1, 64]
0.03507242 0.008470889 -0.042323608 -0.0060132057 -0.10967558 -0.043819122 -0.025575038 -0.095057465
0.05394833 0.0012224254 0.011104441 -0.024115892 -0.037410583 0.024702137 -0.02982166 0.036981467
-0.0036630617 0.03933666 0.02075584 0.10306166 0.06337928 0.12326657 0.060895137 0.028857319
0.08105007 -0.06574914 0.03708089 -0.15861945 -0.24970272 -0.2443025 -0.31408855 -0.16875544
-0.15984559 -0.329544 -0.338392 -0.26849476 -0.24724063 -0.045616817 -0.09379434 0.05916654
0.16117765 0.14178678 0.3068429 0.21659389 0.26859573 0.18599695 0.0639987 0.21451603
0.2220896 0.15084662 0.09772091 0.0043633953 0.06066723 0.035079826 0.047287803 0.024438918
-0.0632782 0.027157007 -0.037897993 0.021081986 0.0951541 0.07491611 -0.0036348144 -0.029271439
0.28834826 0.3240941 0.20434535 0.36497724 0.17756735 0.16618152 0.20064951 0.12871401
0.20520182 0.32792124 0.1456859 0.0433407 0.0024710486 0.16500792 0.14381585 -0.09814079
0.029907582 0.0033538816 -0.026244583 0.06400087 -0.02692511 0.00532467 -0.0690137 0.039296046
0.09405827 0.08129185 0.08576109 0.05760937 -0.16500583 -0.03650984 -0.06165459 0.050572183
0.0055778874 -0.10959262 0.040681966 0.0003439976 0.05422375 0.06766316 0.041429672 -0.017446497
0.09963831 0.16915074 0.027686756 0.14797829 -0.07686327 0.013131963 0.0058598905 -0.005232304
0.013955287 0.118335135 0.19469677 0.16452739 0.018852733 -0.015262345 0.10585176 0.21832263
-0.036971405 -0.029042225 0.14953288 0.17594099 0.22036944 0.18903528 -0.061136477 0.03001507
-0.12147855 -0.03446901 0.06312002 -0.1467672 0.022502873 -0.09726912 -0.14028421 0.05044259
0.056545977 0.09596973 0.037459403 -0.08534753 0.016049359 0.031503636 -0.054669958 0.089410916
-0.021810714 -0.037165925 0.14968647 -0.023172798 0.06624296 0.14206943 0.12959598 0.15408349
0.09469562 0.17676388 0.066317685 0.09357774 0.07141297 -0.025010379 -0.10268596 -0.04332954
-0.14035374 0.0014983425 -0.08935855 0.07847862 0.12128646 0.059529126 0.18227923 0.13156462
0.023139695 0.1367698 -0.0010071136 -0.14393713 -0.06319359 -0.10030668 -0.10729755 -0.33331078
-0.34888083 -0.22830746 -0.40098435 -0.30019665 -0.58003813 -0.68492 -0.4485049 -0.4786897
-0.2767507 -0.34393623 -0.2855076 0.0017011224 -0.03593106 -0.020762924 0.15623455 0.029530069
0.001988298 -0.114210226 -0.16028312 -0.13317722 -0.064865366 0.26838952 0.24526843 0.1377029
-0.030837432 -0.1656559 -0.043584414 0.110502206 0.1623375 -0.04711254 -0.49582726 -0.6071454
-0.3319914 0.110040694 0.2402263 0.30445883 0.23202726 0.1519673 0.16347039 0.16578788
0.107148774 0.075652316 -0.16780256 -0.118005656 -0.032537363 -0.07138562 -0.046356343 0.20150647
0.04131644 0.043852195 0.086665764 -0.24346702 -0.19291842 -0.14381322 -0.12806877 0.04778562
-0.08715316 0.08720349 0.07046023 -0.027175216 -0.012263365 0.021043176 0.027488077 -0.016151628
0.078185424 0.009018627 -0.095024705 -0.05101878 -0.021810416 0.087730795 0.09902153 -0.10765143
-0.13590024 0.14415303 -0.01624713 -0.008520764 0.10922928 0.04222765 0.093155764 -0.013498526
00000000: 19a8 0f3d 7cc9 0a3c 855b 2dbd 6d0a c5bb
00000010: 979d e0bd ae7b 33bd be82 d1bc 7dad c2bd
00000020: edf8 5c3d ca39 a03a 67ef 353c b18e c5bc
00000030: d73b 19bd 235c ca3c 8e4c f4bc e179 173d
00000040: fa0f 70bb 7a1f 213d 2708 aa3c fe11 d33d
00000050: ffcc 813d 2f73 fc3d 2e6d 793d 2f66 ec3c
00000060: 94fd a53d 7ca7 86bd 22e2 173d 236d 22be
00000070: 12b2 7fbe 6f2a 7abe 37d0 a0be 3ace 2cbe
00000080: 90ae 23be feb9 a8be b741 adbe 2578 89be
00000090: a62c 7dbe b3d8 3abd 3f17 c0bd 9d58 723d
000000a0: c10b 253e 8e30 113e 831a 9d3e caca 5d3e
000000b0: 6185 893e fc75 3e3e c011 833d 17aa 5b3e
000000c0: 756b 633e 8977 1a3e e721 c83d d0fa 8e3b
000000d0: 347e 783d ddaf 0f3d dbb0 413d 2034 c83c
000000e0: 0098 81bd 5f78 de3c ed3a 1bbd 21b4 ac3c
000000f0: 27e0 c23d 9e6d 993d 1136 6ebb a8ca efbc
00000100: 62a2 933e a9ef a53e e83f 513e 4cde ba3e
00000110: 37d4 353e 7d2b 2a3e 1177 4d3e 9bcd 033e
00000120: 6d20 523e 4be5 a73e af2e 153e 0586 313d
00000130: 51f1 213b d6f7 283e 7644 133e 0afe c8bd
00000140: bf00 f53c cccc 5b3b e1fe d6bc e312 833d
00000150: 0c92 dcbc 927a ae3b 0e57 8dbd e4f4 203d
00000160: 9fa1 c03d 577c a63d 83a3 af3d cef7 6b3d
00000170: 4af7 28be 588b 15bd 8689 7cbd c724 4f3d
00000180: b6c6 b63b 1872 e0bd 22a2 263d 945a b439
00000190: b919 5e3d fc92 8a3d 29b2 293d f5eb 8ebc
000001a0: 2c0f cc3d da35 2d3e 56cf e23c 9f87 173e
000001b0: 7d6a 9dbd 7227 573c 5304 c03b bf73 abbb
000001c0: b7a4 643c b159 f23d 975e 473e de79 283e
000001d0: 0c71 9a3c ea0e 7abc cfc8 d83d f88f 5f3e
000001e0: 546f 17bd f6e9 edbc 261f 193e e029 343e
000001f0: 87a8 613e 7792 413e 3e6a 7abd 2ae2 f53c
00000200: bfc9 f8bd 602f 0dbd 1245 813d 244a 16be
00000210: f257 b83c 0835 c7bd aaa6 0fbe e49c 4e3d
00000220: c19c 673d c78b c43d 086f 193d b0ca aebd
00000230: f279 833c f509 013d 9bed 5fbd 121d b73d
00000240: 62ac b2bc 4c3b 18bd 6947 193e e1d4 bdbc
00000250: 64aa 873d a67a 113e cfb4 043e 10c8 1d3e
00000260: c7ef c13d 9701 353e 91d1 873d b0a5 bf3d
00000270: f740 923d 91e2 ccbc 044d d2bd 517a 31bd
00000280: e4b8 0fbe 0864 c43a 9e01 b7bd 66b9 a03d
00000290: 0965 f83d d0d4 733d 68a7 3a3e e0b8 063e
000002a0: 758f bd3c 620d 0c3e 2001 84ba 4164 13be
000002b0: a46b 81bd 976d cdbd d1be dbbd b6a7 aabe
000002c0: 82a0 b2be 6ec9 69be d24d cdbe 60b3 99be
000002d0: 617d 14bf eb56 2fbf 6fa2 e5be d116 f5be
000002e0: 45b2 8dbe 6918 b0be 0d2e 92be 32f8 de3a
000002f0: 722c 13bd 0217 aabc f3fb 1f3e 0be9 f13c
00000300: 1b4e 023b 0de7 e9bd 4221 24be 9c5f 08be
00000310: 22d8 84bd 5a6a 893e a627 7b3e fd01 0d3e
00000320: c89e fcbc b3a1 29be 9285 32bd fb4e e23d
00000330: cd3b 263e 14f9 40bd 12dd fdbe e26d 1bbf
00000340: c7fa a9be 045d e13d e2fd 753e 07e2 9b3e
00000350: 8e98 6d3e 519d 1b3e c864 273e 4cc4 293e
00000360: d170 db3d 9aef 9a3d 6fd4 2bbe f3ac f1bd
00000370: e645 05bd a032 92bd 26e0 3dbd b657 4e3e
00000380: 6d3b 293d 5c9e 333d d27d b13d 6b4f 79be
00000390: 688c 45be c643 13be 7624 03be dbba 433d
000003a0: 5b7d b2bd be97 b23d 744d 903d 8f9e debc
000003b0: 48ec 48bc bd62 ac3c ad2e e13c 6b50 84bc
000003c0: ae1f a03d ddc2 133c 509c c2bd 11f9 50bd
000003d0: c2ab b2bc 34ac b33d cdcb ca3d 5a78 dcbd
000003e0: 6f29 0bbe da9c 133e b418 85bc ad9a 0bbc
000003f0: 9ab3 df3d e6f6 2c3d 73c8 be3d ec28 5dbc

firstconv.1.weight f4 [8]
1.2675208 1.0933557 1.413725 1.5780071 1.0242512 1.3823997 1.261584 1.0677288
00000000: 1f3e a23f 14f3 8b3f f1f4 b43f 23fc c93f
00000010: aa1a 833f 79f2 b03f 967b a13f 56ab 883f

firstconv.1.bias f4 [8]
0.053008653 0.06549688 -0.028951492 0.09014247 0.020231102 0.040594574 0.03742864 0.21327384
00000000: 9a1f 593d 3a23 863d ae2b edbc 9e9c b83d
00000010: b2bb a53c 7f46 263d c64e 193d 7564 5a3e

firstconv.1.running_mean f4 [8]
1.2098174e-06 -2.7256942e-06 3.1631776e-06 1.779656e-07 6.0671314e-06 1.7408709e-06 1.5219972e-06 3.5402727e-06
00000000: 0261 a235 12eb 36b6 fa46 5436 d016 3f34
00000010: 4394 cb36 dea7 e935 6d47 cc35 6c95 6d36

firstconv.1.running_var f4 [8]
1.6636662e-08 5.4035866e-08 8.5894605e-08 3.24979e-09 4.8966562e-08 4.0792944e-08 3.1563275e-08 3.033672e-08
00000000: 68e8 8e32 1015 6833 0f75 b833 e952 5f31
00000010: 4e4f 5233 5134 2f33 3090 0733 944b 0233

depthwiseConv.0.weight f4 [16, 1, 64, 1]
0.18979272 0.109048486 -0.016251298 -0.23321038 0.009067321 0.10315234 0.07613479 -0.05058594
-0.02937063 -0.41931295 -0.45671627 -0.1340209 0.016234983 0.009697908 0.01264343 -0.101687215
-0.01507829 -0.20529579 0.10797817 0.00577165 0.026921485 0.011205816 -0.019185988 0.017744845
0.029097924 0.07115615 -0.013747743 -0.094298005 -0.056090407 0.09257432 0.08128486 0.11449457
-0.046605706 0.008012735 0.054290485 0.1325346 -0.0488752 -0.27444628 0.050681636 -0.058147203
-0.021064915 -0.118114434 0.012113144 -0.24793258 -0.032771565 -0.026799506 -0.0100897495 0.05086834
0.070947096 0.03590152 0.2308841 0.18962967 0.25559515 0.2557853 0.13522834 0.017179405
0.13379592 0.07432404 0.24308038 0.24574375 -0.023623113 0.009052893 -0.042057157 -0.4994513
-0.279055 -0.15746199 -0.13973643 0.13447887 0.020449124 -0.13229159 -0.25034666 -0.0012352968
0.039637372 0.2606267 0.3385944 0.21799494 -0.1019921 0.024798257 -0.17781237 0.061810594
0.06966057 0.14640519 0.09508856 -0.0016589588 -0.057595477 0.022396667 0.23148656 0.33509806
0.081916764 0.02980537 0.052189123 0.059746675 0.13609603 0.07959313 0.025611168 0.009815532
-0.05948875 -0.056201458 0.06779709 -0.2196879 -0.15956205 -0.033686507 -0.011334563 -0.10723759
0.056293014 0.11609135 0.16607346 -0.11980242 0.0418093 -0.078262664 -0.046281036 0.046673924
-0.03965991 -0.1425693 -0.3345417 -0.12781738 -0.005599737 -0.12714586 0.029347587 -0.16882527
-0.05485996 -0.34103453 0.0035964672 -0.02990267 -0.00640742 0.081796296 0.1257055 0.33283883
-0.17379126 0.11673257 0.3129927 0.4798083 0.121152 -0.048472922 -0.0049663647 0.012135887
0.047181156 0.14163825 0.58525556 0.1075188 -0.07564292 -0.041951653 0.08226599 0.12879708
0.118465364 0.20471284 -0.06333347 -0.0318415 -0.09792058 -0.09119075 -0.054308414 0.05596901
-0.07642691 0.018647572 -0.00998559 -0.15739447 0.028459206 -0.09052549 -0.08486879 -0.0061340695
-0.023758672 -0.051609542 -0.03587912 -0.06486768 0.02659778 0.12140069 -0.102425 0.031202206
-0.017053822 -0.11425457 0.075381935 0.10591163 0.06759046 -0.0820866 -0.12592451 -0.13278018
0.065916896 0.039298486 -0.15529701 -0.11463215 -0.067821145 -0.10728918 -0.09730757 0.040391292
-0.04402279 0.09858793 -0.00962022 -0.132112 -0.17111415 -0.074417345 0.018922744 -0.40614754
0.056092035 0.17497703 -0.022764474 0.07867659 -0.021426726 -0.27869648 -0.13391 -0.001645152
-0.12916073 -0.041024435 0.037831254 -0.39980504 -0.3301859 0.0465916 0.0061703967 -0.059779808
0.31517398 0.4377401 -0.00827411 -0.07963548 -0.05140467 0.06910915 0.24025983 -0.034944825
0.07613123 0.11748471 0.20097224 -0.05590058 -0.0046585226 0.019622562 0.0191075 -0.12493354
-0.0035575104 0.19832979 0.17033271 -0.019925332 0.084730454 0.04802778 0.059299145 -0.023057899
0.21225351 -0.032826368 0.09908125 -0.12366466 0.106532104 0.03399083 -0.12811063 0.15769096
0.09252239 0.09996073 0.07168561 -0.013286337 -0.11113769 -0.26831767 -0.094859146 -0.18121436
-0.12322762 -0.10508454 -0.15135378 -0.12788062 0.18358575 0.083208025 -0.017152032 0.16473904
00000000: 0659 423e d054 df3d 7121 85bc b4ce 6ebe
00000010: 1a8f 143c 8941 d33d 8fec 9b3d 3433 4fbd
00000020: ad9a f0bc 30b0 d6be b7d6 e9be c63c 09be
00000030: 3aff 843c f9e3 1e3c 6426 4f3c 6341 d0bd
00000040: ef0a 77bc 0f39 52be a923 dd3d 1c20 bd3b
00000050: 728a dc3c 9998 373c ef2b 9dbc a35d 913c
00000060: c55e ee3c 51ba 913d 373e 61bc 501f c1bd
00000070: 0ebf 65bd 9b97 bd3d ad78 a63d 217c ea3d
00000080: a0e5 3ebd d947 033c b35f 5e3d 26b7 073e
00000090: 5d31 48bd 3984 8cbe 8c97 4f3d c32b 6ebd
000000a0: 5490 acbc fbe5 f1bd 3576 463c 0ae2 7dbe
000000b0: 7a3b 06bd a38a dbbc 7a4f 25bc 525b 503d
000000c0: b64c 913d 790d 133d e26c 6c3e 482e 423e
000000d0: 5edd 823e 4af6 823e 4c79 0a3e d3bb 8c3c
000000e0: cc01 093e 3437 983d 10ea 783e 40a4 7b3e
000000f0: 4285 c1bc 9652 143c 2044 2cbd 15b8 ffbe
00000100: 4ce0 8ebe b73d 21be 1117 0fbe d4b4 093e
00000110: ec84 a73c 7277 07be 702d 80be afe9 a1ba
00000120: cc5a 223d dd70 853e 3f5c ad3e 113a 5f3e
00000130: 3ce1 d0bd b725 cb3c 7214 36be 1b2d 7d3d
00000140: 33aa 8e3d 3eeb 153e cabd c23d 6c71 d9ba
00000150: 3ce9 6bbd 3779 b73c d00a 6d3e f991 ab3e
00000160: fac3 a73d 642a f43c 43c4 553d eeb8 743d
00000170: c25c 0b3e b901 a33d 83ce d13c 53d1 203c
00000180: 7aaa 73bd 8033 66bd 33d9 8a3d ddf5 60be
00000190: 3c64 23be ddfa 09bd 9ab4 39bc 629f dbbd
000001a0: 8193 663d 4dc1 ed3d 290f 2a3e f95a f5bd
000001b0: 3b40 2b3d 2d48 a0bd 2f91 3dbd 282d 3f3d
000001c0: 6e72 22bd b0fd 11be 0d49 abbe 8fe2 02be
000001d0: 007e b7bb 8632 02be 5a6a f03c 88e0 2cbe
000001e0: d6b4 60bd 149c aebe b5b2 6b3b 72f6 f4bc
000001f0: 56f5 d1bb d184 a73d f1b8 003e da69 aa3e
00000200: 56f6 31be 7c11 ef3d 9440 a03e 6fa9 f53e
00000210: 8a1e f83d 8b8b 46bd e3bc a2bb 99d5 463c
00000220: 0741 413d 9e09 113e 4fd3 153f d132 dc3d
00000230: adea 9abd 7fd5 2bbd 127b a83d 62e3 033e
00000240: f89d f23d 3ea0 513e fab4 81bd 3c6c 02bd
00000250: 968a c8bd 37c2 babd 8072 5ebd c33f 653d
00000260: b685 9cbd cbc2 983c 9a9a 23bc 042c 21be
00000270: 4823 e93c 6e65 b9bd b0cf adbd 4e00 c9bb
00000280: 8ca1 c2bc 8764 53bd fcf5 12bd 59d9 84bd
00000290: 96e3 d93c eda0 f83d 33c4 d1bd c59b ff3c
000002a0: 75b4 8bbc 4dfe e9bd d861 9a3d 32e8 d83d
000002b0: de6c 8a3d 051d a8bd 5bf2 00be 87f7 07be
000002c0: 70ff 863d 73f7 203d 2e06 1fbe 43c4 eabd
000002d0: d0e5 8abd 6eba dbbd 3149 c7bd 5771 253d
000002e0: 3e51 34bd 78e8 c93d 219e 1dbc 5e48 07be
000002f0: 8c38 2fbe 1f68 98bd df03 9b3c 92f2 cfbe
00000300: c3c0 653d 2e2d 333e 907c babc 3121 a13d
00000310: 1a87 afbc 4eb1 8ebe b41f 09be 24a2 d7ba
00000320: b642 04be 3d09 28bd f2f4 1a3d 3fb3 ccbe
00000330: 200e a9be d5d6 3e3d 0a31 ca3b acdb 74bd
00000340: 7c5e a13e 781f e03e 2290 07bc ed17 a3bd
00000350: b48d 52bd 1989 8d3d ac06 763e 4e22 0fbd
00000360: b1ea 9b3d d39b f03d abcb 4d3e 02f8 64bd
00000370: 85a6 98bb 7fbf a03c 5587 9c3c 28dd ffbd
00000380: 1f25 69bb f716 4b3e b36b 2e3e 733a a3bc
00000390: 2987 ad3d c7b8 443d a9e3 723d ebe3 bcbc
000003a0: fc58 593e f174 06bd 1ceb ca3d e643 fdbd
000003b0: 812d da3d f839 0b3d 6f2f 03be bd79 213e
000003c0: 617c bd3d 36b8 cc3d e8cf 923d f0ae 59bc
000003d0: 289c e3bd ef60 89be 8345 c2bd 4290 39be
000003e0: c35e fcbd 9036 d7bd 7cfc 1abe 23f3 02be
000003f0: e7fd 3b3e f868 aa3d 6b82 8cbc 5ab1 283e

depthwiseConv.1.weight f4 [16]
1.2010862 1.4123045 1.1870853 1.2697555 1.3829976 1.6169487 1.699108 1.3602762
1.0210521 0.9982058 1.4956619 1.4836524 1.4178786 1.274906 1.0469204 1.2525167
00000000: 31bd 993f 65c6 b43f 69f2 973f 5987 a23f
00000010: 1106 b13f 2df8 ce3f 5f7c d93f 881d ae3f
00000020: d6b1 823f 6a8a 7f3f d971 bf3f 52e8 bd3f
00000030: 0c7d b53f 1f30 a33f 7d01 863f 7852 a03f

depthwiseConv.1.bias f4 [16]
-0.49577647 0.16320147 0.03598495 -0.004692552 -0.35226142 -0.8249006 -0.19365607 -0.1804329
-0.1683437 -0.2989185 -0.07200168 -0.12110529 -0.086092904 -0.30396143 -0.15185207 -0.029863965
00000000: 6ad6 fdbe 491e 273e f464 133d fbc3 99bb
00000010: 9c5b b4be b02c 53bf c74d 46be 67c3 38be
00000020: 4a62 2cbe d80b 99be 9e75 93bd 0d06 f8bd
00000030: 7a51 b0bd d5a0 9bbe 1c7f 1bbe 46a5 f4bc

depthwiseConv.1.running_mean f4 [16]
0.0006208558 0.0038802747 0.0065547437 0.020569757 0.014380741 0.001407185 -0.03106073 0.054220553
0.0061452733 0.0038815842 0.013988921 0.00047919265 -0.0099665625 -0.009972396 -0.005520258 0.10227396
00000000: edc0 223a 354c 7e3b 2dc9 d63b e881 a83c
00000010: 339d 6b3c 4b71 b83a 1273 febc 5f16 5e3d
00000020: 4a5e c93b 2d62 7e3b ca31 653c 263c fb39
00000030: cb4a 23bc 4363 23bc 48e3 b4bb 0375 d13d

depthwiseConv.1.running_var f4 [16]
0.000614867 0.004276423 0.0042354963 0.009486515 0.014828032 0.00898708 0.0010200985 0.00091395614
0.0028130717 0.0018258529 0.014677441 0.0035340835 0.008489168 0.0010431635 0.0016737105 0.0014639485
00000000: 072f 213a 3c21 8c3b ebc9 8a3b 546d 1b3c
00000010: 46f1 723c 8c3e 133c d3b4 853a 8f96 6f3a
00000020: 835b 383b 7551 ef3a a679 703c 159c 673b
00000030: 2716 0b3c c2ba 883a 6860 db3a f6e1 bf3a

separableConv.0.weight f4 [16, 1, 1, 16]
-0.10040798 -0.30086 -0.17254037 -0.14929058 -0.14877203 0.06621599 -0.35079715 -0.1736339
0.18231094 0.2901376 0.36190468 0.08844826 0.18622777 0.110969655 0.08466764 -0.014963239
-0.22350366 -0.3119898 -0.12901442 0.1010727 -0.21746348 -0.3987549 -0.16665228 -0.15321603
0.04244737 0.39054468 0.3410761 0.06445677 -0.10239781 -0.039374825 0.23692743 -0.08564854
-0.35980007 -0.29741558 0.050923515 -0.22941177 -0.070362926 -0.094779775 0.27749872 0.09549316
0.20269777 0.009302474 -0.1491466 0.13726628 0.16043319 0.17744881 0.121311374 0.053487655
-0.16817792 -0.35676184 -0.042944416 -0.24757446 0.0153485285 0.10088903 0.024478633 -0.26421642
0.07010215 -0.098854356 0.20596907 0.19645093 0.24707027 0.3457081 0.31048492 0.14065304
0.052035246 -0.16712993 -0.06805867 -0.37602904 -0.23821223 -0.03506528 0.08234581 0.15904549
-0.1918583 0.27261493 0.07341618 -0.17354463 0.29481918 -0.09872584 0.30322805 0.111120746
-0.016292332 0.22694542 0.20573458 0.13322264 0.07632802 0.0023969614 -0.0746091 -0.064638935
-0.065410055 0.04430154 -0.22479549 -0.26832986 -0.11123029 -0.25565284 -0.023011643 0.15855768
-0.0906181 -0.07677371 -0.35268435 -0.22192623 0.29504806 -0.21251269 -0.101165414 -0.10998859
-0.42241943 -0.16708693 -0.029420244 0.06885759 0.17123888 -0.07247743 0.20155877 0.29605246
0.25777835 0.15627399 0.35169804 0.16229309 -0.035965808 0.2966128 0.2559995 0.03294281
0.37026352 -0.107406 -0.1697493 0.039743643 -0.30657947 0.21239522 -0.42148617 -0.118994296
-0.03634468 -0.086521536 -0.23624976 -0.020243116 0.18507528 -0.22379074 -0.18253171 -0.0343542
-0.19034745 0.060881473 0.07507688 -0.061066885 -0.18479791 -0.060931955 -0.086108446 -0.24946895
-0.06130143 0.107173495 0.11821401 0.120289564 -0.13516736 0.19989616 -0.08917018 -0.22821344
0.058875468 -0.14397533 -0.27893937 -0.17088878 -0.20980757 -0.191534 -0.05279752 0.16500847
0.29105404 -0.026691806 0.070575684 0.076381266 0.1749354 0.008435181 0.24202238 -0.03978091
0.1350843 0.13571365 0.025432345 0.16780014 0.06737328 -0.26193884 -0.14684805 0.082862906
-0.3054081 -0.39346558 -0.34880742 -0.049557798 0.21885288 -0.07962135 -0.24381466 0.10632005
-0.25481898 -0.07363847 0.12439563 0.012812711 -0.075351626 -0.24041589 0.110890724 0.09460532
-0.16605397 -0.09830687 -0.28371918 -0.059220556 -0.1171384 0.13292342 0.077261806 0.13221607
-0.07490845 -0.09227358 -0.055681583 -0.42036822 -0.23675698 -0.28625888 -0.03452907 -0.2621123
-0.3226726 0.12900223 0.31177038 0.03771821 -0.14345075 -0.0802538 -0.26851103 -0.2967529
0.08575792 0.24658382 -0.08591918 -0.11482764 0.20507862 0.2987718 0.21899031 0.03695112
-0.42060456 -0.35056022 -0.15906861 -0.023893997 0.1930094 0.016799873 -0.22993588 -0.24882704
-0.43334907 0.02130055 0.15703288 -0.008899542 0.10795232 0.044839367 0.23988914 0.06616202
0.2837017 -0.02409508 -0.16785704 0.14285818 0.19729312 0.20722784 -0.0046023745 0.07015135
0.15482311 0.19872367 -0.008255724 -0.015056416 -0.13416202 0.049722735 -0.28961995 -0.27906364
00000000: b3a2 cdbd 520a 9abe 6cae 30be a1df 18be
00000010: b257 18be 409c 873d af9b b3be 16cd 31be
00000020: b8af 3a3e ea8c 943e 924b b93e 5d24 b53d
00000030: 7eb2 3e3e 0f44 e33d 3a66 ad3d 6028 75bc
00000040: 25de 64be 21bd 9fbe 5b1c 04be 34ff ce3d
00000050: bfae 5ebe 9a29 ccbe e5a6 2abe aae4 1cbe
00000060: 4bdd 2d3d 79f5 c73e 87a1 ae3e e901 843d
00000070: f1b5 d1bd 7f47 21bd 1b9d 723e 8068 afbd
00000080: b737 b8be db46 98be 2d95 503d ebea 6abe
00000090: 701a 90bd e61b c2bd 5014 8e3e eb91 c33d
000000a0: 0190 4f3e 6769 183c e3b9 18be 888f 0c3e
000000b0: 9948 243e 24b5 353e 1972 f83d df15 5b3d
000000c0: d536 2cbe 7da9 b6be 7ce6 2fbd 2984 7dbe
000000d0: 6578 7b3c e89e ce3d 6a87 c83c 6047 87be
000000e0: b791 8f3d 2774 cabd 8ee9 523e 6f2a 493e
000000f0: fdff 7c3e a700 b13e e1f7 9e3e 5a07 103e
00000100: e922 553d 1c24 2bbe 5862 8bbd e186 c0be
00000110: e8ed 73be 9ca0 0fbd eca4 a83d d2dc 223e
00000120: 8176 44be 2f94 8b3e 395b 963d afb5 31be
00000130: 8af2 963e c630 cabd b540 9b3e 4693 e33d
00000140: 7f77 85bc 6164 683e 16ac 523e 846b 083e
00000150: dd51 9c3d 5716 1d3b a8cc 98bd 6b61 84bd
00000160: b5f5 85bd 8875 353d ca30 66be 8862 89be
00000170: b5cc e3bd eee4 82be ea82 bcbc f25c 223e
00000180: fb95 b9bd 893b 9dbd 0b93 b4be a140 63be
00000190: 8a10 973e ed9c 59be d02f cfbd b341 e1bd
000001a0: 5c47 d8be d618 2bbe b902 f1bc 3505 8d3d
000001b0: 3f59 2f3e 0c6f 94bd 6c65 4e3e 3094 973e
000001c0: 86fb 833e 4a06 203e c411 b43e 2930 263e
000001d0: e250 13bd a2dd 973e 5e12 833e 0aef 063d
000001e0: 2e93 bd3e adf7 dbbd c3d2 2dbe 3bca 223d
000001f0: fcf7 9cbe 227e 593e 09cd d7be 48b3 f3bd
00000200: 29de 14bd 3432 b1bd 75eb 71be e4d4 a5bc
00000210: 6084 3d3e 6629 65be 98e9 3abe fdb6 0cbd
00000220: 71ea 42be da5e 793d e8c1 993d 4521 7abd
00000230: aa3b 3dbe c993 79bd a059 b0bd ca74 7fbe
00000240: 3517 7bbd c77d db3d 301a f23d 605a f63d
00000250: 5069 0abe 94b1 4c3e db9e b6bd c9b0 69be
00000260: 6727 713d 456e 13be 24d1 8ebe 78fd 2ebe
00000270: ccd7 56be 7d21 44be 3642 58bd fbf7 283e
00000280: 0905 953e c6a8 dabc fc89 903d c86d 9c3d
00000290: 4422 333e b733 0a3c b7d4 773e 4ff1 22bd
000002a0: 8a53 0a3e 85f8 0a3e 7e57 d03c cdd3 2b3e
000002b0: 01fb 893d d91c 86be 565f 16be 07b4 a93d
000002c0: 735e 9cbe 5274 c9be e396 b2be 1efd 4abd
000002d0: f81a 603e 8510 a3bd 8daa 79be 54be d93d
000002e0: a277 82be c4cf 96bd 23c3 fe3d 68ec 513c
000002f0: f451 9abd 952f 76be ad1a e33d 6fc0 c13d
00000300: 0d0a 2abe 1d55 c9bd a443 91be 4191 72bd
00000310: 42e6 efbd 141d 083e 703b 9e3d a663 073e
00000320: 9a69 99bd eef9 bcbd 5f12 64bd 813a d7be
00000330: 6c70 72be 8690 92be 5b6e 0dbd 9533 86be
00000340: 5835 a5be 2919 043e 5ea0 9f3e 697e 1a3d
00000350: c1e4 12be 1b5c a4bd 477a 89be ffef 97be
00000360: d9a1 af3d 7880 7c3e 65f6 afbd c12a ebbd
00000370: 2100 523e 9ef8 983e ff3e 603e 0f5a 173d
00000380: 7b59 d7be a17c b3be e2e2 22be 58bd c3bc
00000390: 42a4 453e e39f 893c 5074 6bbe 84cc 7ebe
000003a0: eedf ddbe 7e7e ae3c 3acd 203e 62cf 11bc
000003b0: 1b16 dd3d 7ca9 373d 80a5 753e f47f 873d
000003c0: 5941 913e 0c63 c5bc b7e2 2bbe 6a49 123e
000003d0: 3507 4a3e 8933 543e 84cf 96bb 83ab 8f3d
000003e0: f389 1e3e 387e 4b3e 0443 07bc 30af 76bc
000003f0: c561 09be 11aa 4b3d 1149 94be 6ee1 8ebe

separableConv.1.weight f4 [16, 16, 1, 1]
0.20832023 -0.03912818 -0.08503378 -0.0991066 -0.35793987 -0.09113158 -0.3167114 0.23540248
0.09302295 0.30589682 0.053434785 0.010852895 0.100927114 0.08275001 -0.4223976 -0.24159232
-0.39232096 0.2253487 -0.091744356 0.054788224 -0.15656176 0.20625728 -0.23025681 0.09258824
-0.12767777 -0.27048665 -0.058944575 0.30220065 0.055530217 -0.21274313 -0.14227313 -0.24768426
-0.23288962 -0.050575364 0.048984393 0.3245809 0.03728615 -0.07078832 -0.14687668 0.35882497
0.40543392 0.026905539 0.1700554 0.21320006 0.19137555 0.20645705 -0.08843978 -0.099482894
0.19332464 -0.19446875 0.03464182 0.023099512 -0.030804776 -0.1341323 0.093418166 -0.22428633
-0.098306715 0.031453095 -0.14630659 0.009460998 0.39124885 0.2784195 -0.37631795 0.1072688
-0.36055282 0.18845986 -0.30497614 -0.04958975 -0.15397209 0.21403922 -0.16474375 -0.03951251
-0.07341436 -0.32978168 -0.0924438 0.2651662 0.03982522 -0.153268 -0.056363683 -0.12777078
-0.12886421 -0.22871347 0.07264212 0.11217964 -0.22138707 -0.06907205 -0.018317867 0.046227865
0.058041655 0.11581738 -0.0062310975 0.18559028 0.2288032 0.4157137 -0.44126457 -0.16506141
0.16751786 -0.24127214 -0.15731089 -0.14887655 -0.24333443 -0.03010355 -0.21438989 0.22157241
0.05229053 0.051446293 0.16942967 -0.040653136 0.35469407 0.28061673 -0.37466666 -0.13737348
0.08697262 -0.26944304 0.023059657 -0.00755436 0.24867964 0.260463 0.072248295 0.1782036
0.15196338 0.022396587 0.2451346 0.18762594 -0.21378207 -0.15164942 0.43530187 0.12194319
0.058904793 -0.021317732 0.024252977 -0.09291766 0.08475106 -0.04658101 -0.1668713 0.36055437
0.4007565 0.061754137 0.21805856 0.31484762 -0.005315407 0.23895864 0.16583218 0.044037405
0.33364683 -0.07291012 -0.07617025 -0.38059804 -0.018117318 -0.1538448 0.04878496 0.113708094
0.15045604 -0.03737786 0.23716159 -0.11807472 0.23605049 0.21381858 -0.12549454 -0.023337433
0.028364085 0.42464456 -0.07037974 -0.64966434 -0.017869014 -0.13546158 -0.12385741 0.13646495
0.056780934 0.049676344 0.0890942 0.03283014 -0.050830342 -0.05721085 0.07538023 0.071887545
0.06788715 0.0321328 0.20175277 0.037494205 0.24072629 -0.14083241 0.21232219 -0.3784121
0.10874614 0.040510632 0.19932687 -0.25830686 -0.3225094 -0.08572923 0.025093205 0.1963831
0.21909282 0.09688567 0.2404491 -0.053398132 0.12820478 -0.18095975 0.31619844 -0.43566158
-0.025531543 0.10849463 0.14841266 -0.3232173 -0.17144746 -0.0010102335 -0.07031513 0.2261412
0.07828889 0.51757866 -0.009532536 -0.00946551 0.035178553 0.08788552 -0.31018057 0.13005872
0.13160685 0.050176263 0.022527745 0.26104906 -0.32385606 -0.30824536 0.035679806 -0.06910722
-0.20106272 0.32606515 -0.12654011 0.002223164 -0.13709252 0.21706453 -0.40115312 0.13627517
-0.08100503 -0.22280836 0.047753107 0.31771263 0.002278071 -0.0018446288 -0.11767459 -0.23004015
0.008954717 0.09775524 0.4946351 0.18971859 0.15042731 -0.31013253 0.2960855 -0.32487085
-0.16054134 0.20188765 0.017009897 -0.109505326 0.023719447 0.079236954 0.052488595 0.12655425
00000000: e651 553e df44 20bd 3126 aebd 67f8 cabd
00000010: e543 b7be 32a3 babd ff27 a2be 590d 713e
00000020: d182 be3d 829e 9c3e 6fde 5a3d 57d0 313c
00000030: e0b2 ce3d d678 a93d 8044 d8be fa63 77be
00000040: 4bde c8be cfc1 663e 77e4 bbbd 9e69 603d
00000050: ba51 20be 1c35 533e 71c8 6bbe e79e bd3d
00000060: f6bd 02be 3a7d 8abe de6f 71bd 0bba 9a3e
00000070: a773 633d 56d9 59be 0cb0 11be f1a0 7dbe
00000080: 9e7a 6ebe 1d28 4fbd dca3 483d 782f a63e
00000090: 5db9 183d 77f9 90bd d766 16be e8b7 b73e
000000a0: 0995 cf3e 0169 dc3c 0123 2e3e 1e51 5a3e
000000b0: f4f7 433e 7a69 533e ea1f b5bd b0bd cbbd
000000c0: e5f6 453e d122 47be 95e4 0d3d 303b bd3c
000000d0: 4c5a fcbc fa59 09be 0652 bf3d 51ab 65be
000000e0: 0855 c9bd f6d4 003d 65d1 15be 4d02 1b3c
000000f0: c551 c83e 008d 8e3e bfac c0be bfaf db3d
00000100: 619a b8be 9ffb 403e d525 9cbe 9f1e 4bbd
00000110: dcaa 1dbe 192d 5b3e 96b2 28be dfd7 21bd
00000120: 455a 96bd 25d9 a8be 2d53 bdbd ddc3 873e
00000130: c51f 233d 49f2 1cbe 9bdd 66bd 58d6 02be
00000140: fbf4 03be dd33 6abe 64c5 943d 70be e53d
00000150: 4bb3 62be a675 8dbd 5a0f 96bc 6e59 3d3d
00000160: 16bd 6d3d aa31 ed3d 3c2e ccbb 610b 3e3e
00000170: 634b 6a3e 6dd8 d43e 6eed e1be dc05 29be
00000180: cd89 2b3e 0b10 77be 1b16 21be 1873 18be
00000190: a92c 79be b89b f6bc 0689 5bbe e1e3 623e
000001a0: 982e 563d 59b9 523d f97e 2d3e e783 26bd
000001b0: 769a b53e ffac 8f3e 4fd4 bfbe a2ab 0cbe
000001c0: b31e b23d 70f4 89be 9be7 bc3c 918a f7bb
000001d0: e0a5 7e3e 685b 853e eaf6 933d 017b 363e
000001e0: 4a9c 1b3e 0c79 b73c 9104 7b3e 0421 403e
000001f0: b0e9 5abe fc49 1bbe e3df de3e 5abd f93d
00000200: 2746 713d 86a2 aebc 2eae c63c 9d4b bebd
00000210: f791 ad3d bbcb 3ebd 4fe0 2abe 959a b83e
00000220: f52f cd3e e8f1 7c3d be4a 5f3e b533 a13e
00000230: de2c aebb 93b1 743e e9cf 293e 9160 343d
00000240: c2d3 aa3e e751 95bd 26ff 9bbd bfdd c2be
00000250: c56a 94bc 7e89 1dbe bdd2 473d cadf e83d
00000260: 2611 1a3e 8719 19bd 7dda 723e 29d1 f1bd
00000270: 38b7 713e 42f3 5a3e a481 00be 252e bfbc
00000280: cc5b e83c 036b d93e 4123 90bd 6750 26bf
00000290: 0a62 92bc 71b6 0abe f4a8 fdbd 78bd 0b3e
000002a0: 2093 683d 6c79 4b3d 0577 b63d e678 063d
000002b0: 7a33 50bd ed55 6abd f360 9a3d c739 933d
000002c0: 6b08 8b3d af9d 033d 4798 4e3e 8693 193d
000002d0: f480 763e 5f36 10be fd6a 593e 3bbf c1be
000002e0: 4cb6 de3d 7aee 253d 581c 4c3e cc40 84be
000002f0: f41f a5be ce92 afbd 4490 cd3c a718 493e
00000300: de59 603e ff6b c63d 4a38 763e 00b8 5abd
00000310: 1d48 033e 834d 39be c3e4 a13e 090f dfbe
00000320: 8727 d1bc 6f32 de3d 7df9 173e bd7c a5be
00000330: ec8f 2fbe d069 84ba 6101 90bd 8f91 673e
00000340: ed55 a03d 0980 043f 5b2e 1cbc 3a15 1bbc
00000350: 6317 103d 53fd b33d fdcf 9ebe 1d2e 053e
00000360: f2c3 063e a085 4d3d 1b8c b83c 39a8 853e
00000370: 76d0 a5be 56d2 9dbe fd24 123d 1688 8dbd
00000380: 63e3 4dbe 03f2 a63e bb93 01be 81b2 113b
00000390: fb61 0cbe 2a46 5e3e f163 cdbe b88b 0b3e
000003a0: f7e5 a5bd e027 64be c398 433d 3bab a23e
000003b0: b04b 153b 79c7 f1ba 60ff f0bd a58f 6bbe
000003c0: ceb6 123c e633 c83d d040 fd3e 9745 423e
000003d0: 9e09 1a3e b1c9 9ebe 8598 973e 7955 a6be
000003e0: f364 24be a3bb 4e3e 5758 8b3c 5444 e0bd
000003f0: 494f c23c fc46 a23d 48fe 563d 7097 013e

separableConv.2.weight f4 [16]
1.6939316 2.002424 1.7757534 1.7349864 1.7877356 1.759334 1.9670073 1.9071244
1.7820561 1.8181938 2.272547 1.860845 2.049258 2.329062 1.8970098 1.714445
00000000: c0d2 d83f b727 0040 e34b e33f 0914 de3f
00000010: 85d4 e43f db31 e13f e5c6 fb3f a71c f43f
00000020: 6a1a e43f 93ba e83f 6971 1140 2b30 ee3f
00000030: 0b27 0340 5a0f 1540 38d1 f23f ef72 db3f

separableConv.2.bias f4 [16]
0.21992284 -0.3589623 0.14361629 -0.22124286 -0.43425813 0.026515214 -0.12278196 -0.004887947
0.14839464 -0.03609331 0.087079644 0.1645735 0.2019535 0.1600342 0.029135263 -0.14939405
00000000: 7433 613e e8c9 b7be 2610 133e 7d8d 62be
00000010: 1557 debe 6f36 d93c 1c75 fbbd 122b a0bb
00000020: c4f4 173e 94d6 13bd d056 b23d f585 283e
00000030: e6cc 4e3e 01e0 233e 13ad ee3c c1fa 18be

separableConv.2.running_mean f4 [16]
0.03458838 -0.06472055 -0.0058506727 -0.113352105 -0.08539499 -0.04790306 -0.0070512155 0.10503303
-0.00400897 -0.057293475 -0.08337472 0.09935618 0.042489838 0.028171184 -0.03334902 -0.03543507
00000000: 8cac 0d3d 358c 84bd 00b7 bfbb 2625 e8bd
00000010: 92e3 aebd 0036 44bd e20d e7bb 8f1b d73d
00000020: ae5d 83bb 90ac 6abd 5dc0 aabd 417b cb3d
00000030: d309 2e3d 41c7 e63c fb98 08bd 5d24 11bd

separableConv.2.running_var f4 [16]
0.58331704 0.7717544 0.4366642 0.6548631 0.65560067 0.63860154 0.7547901 0.609571
0.4533631 0.5429861 0.85571706 0.54413086 0.62581444 0.93856734 0.772273 0.5225784
00000000: 4454 153f b291 453f 7392 df3e 1ca5 273f
00000010: 72d5 273f 647b 233f ed39 413f d80c 1c3f
00000020: 351f e83e 2301 0b3f 4610 5b3f 294c 0b3f
00000030: 6035 203f f345 703f afb3 453f b3c7 053f

Dense.weight f4 [3, 64]
0.06556151 -0.021278726 0.013327387 0.35746202 0.66870856 -0.776398 -0.27154645 0.31719598
0.21045682 -0.05353944 0.29179424 0.51614255 -0.01076219 0.44109067 -0.10649728 -0.0782771
0.2627588 -1.2374175 -0.3996979 0.21618332 0.0516605 0.05900921 0.030699302 0.21730232
-0.3768524 0.056833517 0.018924156 0.24907774 -0.17407398 0.25223836 0.31442788 0.25889826
-0.2155082 0.050452046 0.3334995 0.38037625 -0.30018872 0.2627508 0.14347076 0.22511673
0.17560014 0.22516088 0.4078423 0.20689549 0.046076402 0.60285956 0.1757142 -0.25521576
-0.06031244 1.0245485 0.120759144 -0.16971655 0.55296427 -0.13479458 0.14298972 0.4522484
0.506868 -0.5798208 -0.19297989 0.45402974 0.053059693 0.66835696 0.033904865 -0.77288055
-0.59257776 -0.17086527 0.10115756 -0.16526939 -0.46946734 0.32223037 0.083893396 -0.24909484
-0.3813002 0.29645452 0.017799819 -0.34335542 -0.5428734 -0.13435158 0.045054533 0.16675115
-0.23507869 0.36189973 0.109604314 -0.1526172 -0.76026934 0.03327232 0.048629034 0.014469679
-0.58171916 -0.12148348 0.10443054 -0.08416265 0.38286942 -0.08473961 -0.4813052 -0.37650588
-0.05187177 -0.0006067013 -0.35305676 -0.24915546 -0.25013787 -0.46473557 -0.050184444 0.06971513
-0.032864865 -0.35307953 -0.4098322 -0.15479416 0.39443043 -0.49373415 -0.16714601 -0.04157829
0.2631448 -0.8229021 -0.012196566 0.14521834 0.23994274 -0.15958543 -0.0644421 -0.2523184
-0.5316934 0.12225083 0.005364167 -0.36047402 -0.026727919 -0.18054473 -0.11795416 0.25939813
0.31848067 0.060350254 -0.21865536 -0.49093884 -0.30128863 0.2901886 0.13524097 -0.16520637
0.16117132 -0.2181289 -0.30946574 -0.24959472 0.57838655 -0.3431001 -0.119294934 -0.107944034
-0.2835056 0.35278493 0.36526924 -0.04971416 0.40161186 -0.35967007 -0.12260342 -0.38584554
0.79113215 0.14545172 -0.21163765 -0.56202066 -0.29156327 -0.23603044 0.09078792 -0.09405561
0.1389031 -0.3139576 -0.19360809 -0.2514611 0.31643105 -0.04129929 -0.22941875 -0.15532732
-0.09008749 0.1917763 -0.022711601 -0.3115508 -0.54518723 -0.4286571 -0.1151817 0.1333966
-0.35940197 -0.3855743 -0.18141924 0.15943696 -1.1840361 0.22655179 -0.09262133 -0.2929158
-0.21310943 0.25171956 0.07052252 -0.36661074 0.20498218 -0.52346474 -0.23023209 0.49795228
00000000: 1d45 863d b950 aebc 1d5b 5a3c 4305 b73e
00000010: 7c30 2b3f 05c2 46bf 2308 8bbe 8367 a23e
00000020: fe81 573e 2c4c 5bbd 0e66 953e eb21 043f
00000030: e653 30bc a3d6 e13e 3f1b dabd bf4f a0bd
00000040: 5288 863e b263 9ebf 34a5 ccbe 295f 5d3e
00000050: f699 533d a4b3 713d 1a7d fb3c 8084 5e3e
00000060: ccf2 c0be 43ca 683d d506 9b3c 3c0e 7f3e
00000070: 7340 32be 6325 813e b1fc a03e 508e 843e
00000080: 2eae 5cbe cea6 4e3d 72c0 aa3e adc0 c23e
00000090: 56b2 99be 4687 863e 00ea 123e 0085 663e
000000a0: 86d0 333e 9390 663e b5d0 d03e 69dc 533e
000000b0: 9cba 3c3d 0155 1a3f 6cee 333e a4ab 82be
000000c0: 2d0a 77bd 6824 833f 9250 f73d 2dca 2dbe
000000d0: 118f 0d3f 9707 0abe e66b 123e 1a8d e73e
000000e0: 1ac2 013f 236f 14bf 859c 45be 9676 e83e
000000f0: 1f55 593d 7119 2b3f d4df 0a3d 80db 45bf
00000100: 2db3 17bf 4ef7 2ebe b22b cf3d 613c 29be
00000110: 065e f0be 61fb a43e 4dd0 ab3d b812 7fbe
00000120: c839 c3be e3c8 973e edd0 913c 48cc afbe
00000130: c0f9 0abf 7693 09be 1a8b 383d d0c0 2a3e
00000140: 78b8 70be ec4a b93e 3a78 e03d af47 1cbe
00000150: 03a1 42bf 8e48 083d 3d2f 473d 3c12 6d3c
00000160: 8ceb 14bf 55cc f8bd aedf d53d 785d acbd
00000170: 7607 c43e f68b adbd a36d f6be 61c5 c0be
00000180: 7e77 54bd 090b 1fba dbc3 b4be 9c22 7fbe
00000190: 1212 80be d2f1 edbe 348e 4dbd cec6 8e3d
000001a0: 4f9d 06bd d7c6 b4be 87d5 d1be 5c82 1ebe
000001b0: c9f2 c93e b9ca fcbe 5328 2bbe ff4d 2abd
000001c0: eaba 863e b6a9 52bf 1bd4 47bc 1eb4 143e
000001d0: 8db3 753e 5d6a 23be 38fa 83bd e12f 81be
000001e0: 0f1d 08bf a55e fa3d e5c5 af3b 0d90 b8be
000001f0: 82f4 dabc b8e0 38be f391 f1bd d5cf 843e
00000200: e60f a33e d431 773d 31e7 5fbe 565c fbbe
00000210: 8142 9abe 9a93 943e 9c7c 0a3e dc2b 29be
00000220: 180a 253e 2f5d 5fbe 4b72 9ebe c295 7fbe
00000230: 2411 143f d1aa afbe e750 f4bd c311 ddbd
00000240: a527 91be 3aa0 b43e 9204 bb3e 13a1 4bbd
00000250: 12a0 cd3e ad26 b8be 8017 fbbd 8c8d c5be
00000260: a387 4a3f 4cf1 143e 8ab7 58be 96e0 0fbf
00000270: c847 95be f7b1 71be 04ef b93d 3aa0 c0bd
00000280: 9d3c 0e3e 0dbf a0be 3341 46be 82bf 80be
00000290: 4003 a23e 7229 29bd c0ec 6abe 200e 1fbe
000002a0: ca7f b8bd 0261 443e ae0d babc 9683 9fbe
000002b0: 6491 0bbf f278 dbbe 62e4 ebbd 1e99 083e
000002c0: 8903 b8be ff69 c5be f7c5 39be 7143 233e
000002d0: 7f8e 97bf 31fd 673e 40b0 bdbd 0ff9 95be
000002e0: 5c39 5abe 63e1 803e 1c6e 903d 67b4 bbbe
000002f0: d9e6 513e c901 06bf f6c1 6bbe 9af3 fe3e

Dense.bias f4 [3]
0.6481035 -0.40858406 -0.43763837
00000000: 1cea 253f ee31 d1be 2312 e0be
