main/eegnet.pth (torch, 15806 bytes, 18 tensors)

firstconv.0.weight f4 [8, 1, 1, 64]
-0.008309619 -0.041245684 -0.016476572 -0.022552358 -0.19530931 -0.18202679 -0.1409543 -0.03503084
-0.010956815 -0.13580163 -0.15876172 0.087346874 0.07532132 0.031180965 0.15828985 0.17857467
0.32241976 0.22236276 0.28446698 0.3471647 0.3712276 0.19514188 0.21767144 0.22653624
0.26384947 0.07424183 -0.034458145 -0.029056622 0.0041061696 -0.16591495 -0.12300563 -0.28032887
-0.20133619 -0.20893866 -0.33242986 -0.35235465 -0.31490105 -0.19414453 -0.28444022 -0.3926328
-0.22225383 -0.2527571 -0.18218464 -0.16727011 -0.16969901 -0.018105477 -0.034920227 -0.041463
-0.037347883 0.11134344 0.027570961 0.036663134 -0.0026572933 0.11749071 0.03738314 0.11401567
-0.046533085 0.0072381375 0.09453458 0.006681267 0.07450418 0.038156684 0.13603306 0.0840347
-0.23751034 -0.33273765 0.1888688 0.2204514 0.25240213 -0.09270926 -0.056626298 0.029981185
0.010640327 -0.13020949 -0.174549 -0.15567882 -0.06499587 0.050010957 0.19541952 0.12680624
0.093822286 0.2794028 0.077515505 -0.13193214 -0.05932656 -0.21472475 -0.27908185 -0.44836682
-0.4273094 -0.1571999 0.3112741 0.4091536 0.17512073 0.020466778 0.15523842 0.37338278
0.44591132 0.10936844 -0.052076917 -0.04223726 0.11320578 -0.011993048 -0.07918643 0.05249401
-0.19476506 -0.18248582 -0.22761051 -0.3150626 -0.07926843 -0.26431465 -0.12487601 -0.1774691
-0.10141366 0.09590946 0.19056156 0.018469311 -0.13587411 -0.19406231 0.05758499 -0.009775573
0.11841419 0.07998388 0.054982025 -0.09289431 -0.10369159 0.024750592 0.077498704 0.13136363
0.21135637 0.26432076 0.2515971 0.006915795 -0.1019394 -0.12161399 -0.21394275 0.011776223
-0.08839253 -0.13078564 -0.0095718475 -0.25219032 -0.21134086 -0.17226808 -0.26414016 -0.3695506
-0.32556683 -0.26727316 -0.38521183 -0.3903711 -0.2077992 -0.29556522 -0.20226656 -0.094990626
-0.16105743 -0.022203492 -0.016059296 0.021849493 0.034946803 -0.023272034 -0.02813578 -0.007798463
0.06480214 0.102060996 -0.03130336 0.12800936 0.028562546 0.17114569 0.21067424 0.1357294
0.050213363 0.075551346 -0.0009543247 0.10838183 0.14438403 0.11049141 0.011970015 0.24426252
0.23068288 0.15634377 0.19287623 0.23947318 0.09600803 0.10336665 -0.022742704 0.08440415
0.008355729 -0.025319608 0.0187947 0.058979757 0.10238842 0.24547926 0.29439735 0.24196343
-0.54227203 -0.74174047 -0.9080389 -0.6257037 -0.559657 -0.5489723 -0.4885682 -0.17782295
-0.05433889 -0.0344596 -0.0304465 -0.09734996 -0.04534448 0.09134575 0.0024762661 -0.044611394
0.00037242338 0.10045731 0.032017358 -0.012306489 0.068119176 0.029275598 0.011738724 0.09005165
-0.08897917 0.04368689 -0.030458858 -0.15587717 -0.08359387 -0.18519013 -0.23449527 -0.09690485
-0.10949345 -0.15453866 0.03213984 -0.20567307 -0.20486638 -0.04730395 -0.095013 -0.041711364
0.04887583 0.054123387 -0.077713974 0.004093575 0.076841995 -0.028116772 0.04338193 0.11506876
0.21564959 -0.034343604 0.04843861 0.017472778 -0.034010153 -0.20222987 -0.13575727 -0.07707931
-0.11762604 -0.10229653 -0.036323223 -0.14531162 -0.09608596 -0.16132113 -0.2067937 -0.13694264
00000000: 1125 08bc 3cf1 28bd e0f9 86bc b9bf b8bc
00000010: 2aff 47be 3b65 3abe 5356 10be 807c 0fbd
00000020: 3784 33bc 950f 0bbe 6f92 22be ebe2 b23d
00000030: 1042 9a3d 396f ff3c bc16 223e 47dc 363e
00000040: 3414 a53e 10b3 633e a8a5 913e 92bf b13e
00000050: 8b11 be3e 46d3 473e 43e5 5e3e 1ef9 673e
00000060: 4717 873e 1a0c 983d fc23 0dbd 2708 eebc
00000070: 0c8d 863b 9ce5 29be 60ea fbbd 4487 8fbe
00000080: 132b 4ebe 04f4 55be 3f34 aabe d467 b4be
00000090: b63a a1be d3cd 46be 26a2 91be 2b07 c9be
000000a0: 8296 63be 6169 81be 9c8e 3abe db48 2bbe
000000b0: 94c5 2dbe f051 94bc 8308 0fbd 1bd5 29bd
000000c0: 18fa 18bd 0808 e43d 7fdc e13c 152c 163d
000000d0: fc25 2ebb f89e f03d 101f 193d 0c81 e93d
000000e0: 7a99 3ebd e62d ed3b 599b c13d 88ee da3b
000000f0: a695 983d 2f4a 1c3d 404c 0b3e 631a ac3d
00000100: e935 73be 975c aabe d366 413e 03be 613e
00000110: da3a 813e 5ade bdbd faf0 67bd 1a9b f53c
00000120: c454 2e3c a355 05be f9bc 32be 456a 1fbe
00000130: 8e1c 85bd 4ad8 4c3d 0e1c 483e 7fd9 013e
00000140: e625 c03d e20d 8f3e 73c0 9e3d 3819 07be
00000150: 6800 73bd cee0 5bbe d1e3 8ebe 5690 e5be
00000160: 4cc8 dabe 03f9 20be 525f 9f3e 957c d13e
00000170: d952 333e f2a9 a73c d2f6 1e3e 072c bf3e
00000180: 7d4e e43e 90fc df3d 9b4e 55bd fa00 2dbd
00000190: 6fd8 e73d 7d7e 44bc 7f2c a2bd f603 573d
000001a0: 7e70 47be 90dd 3abe bb12 69be e34f a1be
000001b0: 7d57 a2bd 4054 87be febe ffbd 76ba 35be
000001c0: f7b1 cfbd 2e6c c43d 9222 433e f44c 973c
000001d0: 9522 0bbe 45b8 46be 3dde 6b3d ba29 20bc
000001e0: 2483 f23d 97ce a33d d534 613d 5f3f bebd
000001f0: 425c d4bd c1c1 ca3c a4b7 9e3d 3084 063e
00000200: ce6d 583e 0d55 873e 56d1 803e e59d e23b
00000210: 9bc5 d0bd c110 f9bd cf13 5bbe 0ff1 403c
00000220: 2507 b5bd acec 05be 3dd3 1cbc 171f 81be
00000230: bd69 58be 0b67 30be 613d 87be bc35 bdbe
00000240: b2b0 a6be 07d8 88be 7c3a c5be b9de c7be
00000250: 50c9 54be 5354 97be f71e 4fbe 728a c2bd
00000260: 3dec 24be 19e4 b5bc c98e 83bc b5fd b23c
00000270: 6124 0f3d fea4 bebc 027d e6bc 408a ffbb
00000280: fcb6 843d 5b05 d13d f437 00bd e314 033e
00000290: 00fc e93c d140 2f3e fdba 573e a6fc 0a3e
000002a0: 87ac 4d3d aaba 9a3d a62b 7aba 4bf7 dd3d
000002b0: 68d9 133e 5249 e23d e21d 443c f41f 7a3e
000002c0: 2238 6c3e 9518 203e 5981 453e 7538 753e
000002d0: dc9f c43d e5b1 d33d e84e babc 15dc ac3d
000002e0: 78e6 083c 116b cfbc 58f7 993c c294 713d
000002f0: 05b1 d13d ea5e 7b3e 40bb 963e 43c5 773e
00000300: 57d2 0abf b4e2 3dbf 3d75 68bf 1e2e 20bf
00000310: ae45 0fbf 7389 0cbf 9c25 fabe 3817 36be
00000320: 7592 5ebd 8225 0dbd f06a f9bc 6a5f c7bd
00000330: 22bb 39bd 7b13 bb3d da48 223b 70ba 36bd
00000340: d241 c339 90bc cd3d a224 033d 28a1 49bc
00000350: 1182 8b3d 61d3 ef3c c753 403c 006d b83d
00000360: b63a b6bd 06f1 323d db84 f9bc 449e 1fbe
00000370: 4333 abbd 7ba2 3dbe 871f 70be 0d76 c6bd
00000380: 1a3e e0bd 623f 1ebe 11a5 033d f69b 52be
00000390: 7ec8 51be c9c1 41bd 2d96 c2bd 89d9 2abd
000003a0: 0632 483d 7cb0 5d3d 8128 9fbd 6523 863b
000003b0: 565f 9d3d 2555 e6bc 40b1 313d 2ca9 eb3d
000003c0: 3fd3 5c3e e1ab 0cbd 9067 463d 1223 8f3c
000003d0: 3b4e 0bbd 5915 4fbe f403 0bbe c2db 9dbd
000003e0: ece5 f0bd d880 d1bd a9c7 14bd 92cc 14be
000003f0: b7c8 c4bd 5e31 25be bac1 53be b13a 0cbe

firstconv.1.weight f4 [8]
1.253203 1.5439434 1.044576 0.9379975 1.8246534 1.2206943 1.6637031 1.3270224
00000000: f568 a03f f09f c53f abb4 853f 9b20 703f
00000010: 3e8e e93f b63f 9c3f 39f4 d43f dfdb a93f

firstconv.1.bias f4 [8]
-0.11729285 0.099737644 -0.2750286 -0.07628127 -0.0036146143 0.30953363 0.20542377 0.15514718
00000000: 3c37 f0bd 4043 cc3d 8cd0 8cbe 5b39 9cbd
00000010: 2ae3 6cbb 317b 9e3e 9c5a 523e e7de 1e3e

firstconv.1.running_mean f4 [8]
4.3334803e-06 7.4527696e-07 -1.4724823e-06 7.762264e-06 -3.0285128e-07 -3.5843098e-06 1.3191107e-07 -1.2824803e-06
00000000: 5068 9136 0b0f 4835 1ba2 c5b5 ac3a 0237
00000010: 9097 a2b4 f989 70b6 70a3 0d34 b021 acb5

firstconv.1.running_var f4 [8]
4.061139e-08 8.926327e-09 6.328545e-08 1.3074262e-07 5.5146656e-09 8.497685e-08 5.4167582e-08 4.3758902e-08
00000000: b26c 2e33 675a 1932 8be7 8733 4262 0c34
00000010: 837b bd31 847c b633 e3a5 6833 6cf1 3b33

depthwiseConv.0.weight f4 [16, 1, 64, 1]
-0.21456204 -0.21587181 -0.08735392 0.093639255 0.08390201 -0.029432885 -0.13084917 -0.01913955
0.053768914 0.0190954 -0.014346533 0.26213905 0.07534374 0.008141148 0.077360086 0.06778391
0.13638647 0.13205725 0.002953446 0.051227707 -0.24573499 -0.17367962 -0.03061174 -0.06689187
-0.08174111 -0.007727743 0.08450966 0.18960589 0.23394738 -0.1659402 -0.079375885 -0.20295861
0.0051262937 0.06372527 0.06449261 0.08046556 0.034563094 0.5915698 -0.18069385 0.0012412197
0.13371426 0.0015290504 -0.02857137 0.25325787 0.02977394 -0.11997598 -0.063323714 0.1113089
0.15396617 -0.045720052 -0.2481043 -0.08620706 -0.30769935 -0.5191198 -0.49081275 0.17084855
0.03581545 0.10764481 -0.32872352 -0.42553887 0.18846406 0.19279091 -0.049136706 0.38829505
-0.0017856323 0.1690983 0.06211301 0.5988805 0.5213484 0.03925085 0.05436162 -0.13398011
0.015407325 0.34815487 0.6569816 0.37558377 0.13084647 -0.1767773 -0.11418082 0.006475591
-0.14489724 -0.036180247 -0.14694862 -0.05889756 -0.08264178 0.02262913 -0.104430065 0.074317865
-0.018440066 -0.08575933 -0.13514483 -0.2260724 0.016211467 -0.10007822 -0.07019363 0.18705507
-0.18998836 0.054845966 -0.13253547 -0.06291351 0.019745756 0.16811967 -0.03214903 -0.1418321
-0.11196916 -0.30967712 -0.0780893 0.08222602 -0.1695544 -0.37898645 -0.26715672 -0.009780961
-0.08800304 -0.0266164 -0.26433197 -0.0076719834 -0.15210077 0.12758031 0.05357061 0.06932954
0.1374529 0.006779391 0.15855886 0.25342318 0.05846656 0.1386024 0.17217131 -0.2628674
0.068942115 -0.047682013 -0.18119362 -0.5266055 -0.0017910865 0.044401534 0.0051146904 -0.040901814
-0.05905907 -0.18182737 -0.33984467 0.03756225 0.027949858 -0.04851628 -0.1423519 -0.31949288
-0.1861012 -0.18176849 0.18447061 0.052723743 0.12774679 -0.13212053 0.10037298 -0.040939778
0.06367339 0.17988107 0.07332037 0.06363725 -0.014114374 0.19341038 -0.032506455 -0.084005155
0.13600078 0.23766689 0.10328386 0.08985071 -0.063650526 -0.19220898 0.1990892 -0.03772127
0.011486226 0.23014566 -0.032923 -0.110341914 -0.08994702 0.014622572 -0.06193152 0.05699053
-0.07748638 0.029323295 -0.096648574 0.1390714 0.003718287 -0.16235784 -0.32517636 -0.019082578
-0.04757124 0.07695863 -0.12618366 -0.2801481 0.26690158 0.45903817 0.009686215 0.88795125
0.11063968 0.016881293 0.29339692 -0.25235787 -0.26211247 0.20575608 0.11374977 0.049109094
-0.0812534 0.079303235 0.033117034 -0.15138964 -0.0023641537 0.16858406 -0.024581539 -0.50964946
-0.37676728 0.07973657 0.009258275 0.2770396 0.12538354 0.016071204 -0.049589466 0.011177674
-0.00027475227 0.09012072 0.11441209 -0.012862978 -0.1163656 0.0987093 0.051238272 0.069830306
0.12981105 0.042332176 -0.05889979 -0.22446315 -0.068903886 -0.07924592 -0.041970626 0.06186991
0.13484097 0.2345697 0.48077795 0.08747685 0.10406461 0.026855355 -0.11121223 -0.28292328
-0.45838144 -0.04094525 -0.3696136 -0.15088148 -0.13084875 0.1159689 0.062021393 -0.61784714
-0.56532377 -0.07418094 0.17084302 -0.04715719 -0.050071217 0.107168905 -0.0185062 0.7718075
00000000: 27b6 5bbe 800d 5dbe 9de6 b2bd f0c5 bf3d
00000010: d1d4 ab3d 3c1d f1bc 53fd 05be 8cca 9cbc
00000020: cb3c 5c3d f56d 9c3c b90d 6bbc 1737 863e
00000030: d24d 9a3d 7362 053c f76e 9e3d 4ad2 8a3d
00000040: e5a8 0b3e 043a 073e 9a8e 413b 25d4 513d
00000050: f4a1 7bbe 12d9 31be 79c5 fabc 9bfe 88bd
00000060: e267 a7bd 0239 fdbb 6713 ad3d 0c28 423e
00000070: e78f 6f3e 3aec 29be d38f a2bd 62d4 4fbe
00000080: 78fa a73b 6582 823d b414 843d 21cb a43d
00000090: 0892 0d3d 1e71 173f cf07 39be 6cb0 a23a
000000a0: 64ec 083e 6b6a c83a 810e eabc 04ab 813e
000000b0: 7ae8 f33c f7b5 f5bd ddaf 81bd ecf5 e33d
000000c0: 4fa9 1d3e f344 3bbd 0e0f 7ebe 548d b0bd
000000d0: c58a 9dbe 09e5 04bf cf4b fbbe ecf2 2e3e
000000e0: 39b3 123d e274 dc3d 734e a8be 3be0 d9be
000000f0: b9fc 403e fb6a 453e 9243 49bd 9cce c63e
00000100: e10b eaba 1b28 2d3e 366a 7e3d 3c50 193f
00000110: 1777 053f 80c5 203d 4aaa 5e3d 1532 09be
00000120: 016f 7c3c 5b41 b23e f22f 283f 844c c03e
00000130: 9efc 053e 1c05 35be a2d7 e9bd 3231 d43b
00000140: f15f 14be bd31 14bd b379 16be 913e 71bd
00000150: 1840 a9bd ba60 b93c 6edf d5bd f733 983d
00000160: 9f0f 97bc 96a2 afbd 6863 0abe 867f 67be
00000170: e9cd 843c cff5 ccbd aec1 8fbd 5d8b 3f3e
00000180: 4f8c 42be 2aa6 603d 61b7 07be ccd8 80bd
00000190: dac1 a13c 9027 2c3e b4ae 03bd 6f3c 11be
000001a0: 1650 e5bd 008e 9ebe 48ed 9fbd 1e66 a83d
000001b0: ab9f 2dbe 830a c2be c4c8 88be 5340 20bc
000001c0: f03a b4bd a30a dabc 8556 87be 4365 fbbb
000001d0: 4ec0 1bbe 6aa4 023e db6c 5b3d a5fc 8d3d
000001e0: 74c0 0c3e a725 de3b 415d 223e afc0 813e
000001f0: a27a 6f3d caed 0d3e ad4d 303e 8e96 86be
00000200: 8631 8d3d 374e 43bd d28a 39be 9ecf 06bf
00000210: e4c2 eaba 62de 353d 2299 a73b a988 27bd
00000220: ece7 71bd f430 3abe 1f00 aebe e0da 193d
00000230: 1af7 e43c 02b9 46bd b2c4 11be 9294 a3be
00000240: 5091 3ebe 8521 3abe dde5 3c3e daf4 573d
00000250: 0ed0 023e 9b4a 07be 5990 cd3d 78b0 27bd
00000260: 3267 823d be32 383e fd28 963d 3f54 823d
00000270: fa3f 67bc 5f0d 463e 7d25 05bd e50a acbd
00000280: ca43 0b3e f35e 733e 7d86 d33d a603 b83d
00000290: 355b 82bd 6ed2 44be 0ade 4b3e 9e81 1abd
000002a0: b930 3c3c 4eab 6b3e 45da 06bd f1fa e1bd
000002b0: 2536 b8bd 8393 6f3c e8ab 7dbd e76e 693d
000002c0: 2eb1 9ebd 6837 f03c b0ef c5bd bc68 0e3e
000002d0: 81ae 733b 2241 26be 847d a6be 1153 9cbc
000002e0: 10da 42bd 7c9c 9d3d 4a36 01be 926f 8fbe
000002f0: 53a7 883e 0d07 eb3e eeb2 1e3c c650 633f
00000300: 0e97 e23d a34a 8a3c 1f38 963e 0d35 81be
00000310: 9b33 86be b9b1 523e a4f5 e83d 9e26 493d
00000320: 2f68 a6bd bc69 a23d baa5 073d e305 1bbe
00000330: ebef 1abb 4da1 2c3e 395f c9bc 6378 02bf
00000340: a4e7 c0be ed4c a33d 05b0 173c 22d8 8d3e
00000350: 8b64 003e c2a7 833c 531e 4bbd 9022 373c
00000360: a00c 90b9 3691 b83d e350 ea3d 3dbf 52bc
00000370: 1651 eebd 1a28 ca3d 39df 513d 3103 8f3d
00000380: 30ed 043e 8164 2d3d e840 71bd abd9 65be
00000390: 7b1d 8dbd af4b a2bd 64e9 2bbd 4e6b 7d3d
000003a0: c013 0a3e 0a33 703e 8728 f63e 1027 b33d
000003b0: d41f d53d c3ff db3c 3dc3 e3bd 52db 90be
000003c0: f9b0 eabe 35b6 27bd fe3d bdbe ad80 1abe
000003d0: 37fd 05be 1a81 ed3d 250a 7e3d 3b2b 1ebf
000003e0: 0fb9 10bf 2dec 97bd 79f1 2e3e e627 41bd
000003f0: 7a17 4dbd 5f7b db3d 509a 97bc 2d95 453f

depthwiseConv.1.weight f4 [16]
1.4026036 1.3968387 1.4796237 1.411163 1.670544 0.9895304 0.94452035 1.5705718
1.3883952 1.8510911 1.2259207 1.6463335 1.8988874 1.40514 1.556278 1.2094971
00000000: 8488 b33f 9ccb b23f 4f64 bd3f fda0 b43f
00000010: 63d4 d53f dd51 7d3f 16cc 713f 7f08 c93f
00000020: efb6 b13f 8ef0 ec3f f8ea 9c3f 0ebb d23f
00000030: be0e f33f a1db b33f 1e34 c73f cdd0 9a3f

depthwiseConv.1.bias f4 [16]
-0.6826406 -0.3015491 -0.04337825 -0.42595178 -0.15938197 -0.15473264 0.077834666 0.095786646
-0.12341238 -0.09312986 0.17115222 -0.27521512 -0.32893452 -0.17962255 -0.032152247 -0.14204712
00000000: 89c1 2ebf a564 9abe 64ad 31bd 5a16 dabe
00000010: 0735 23be 3c72 1ebe c867 9f3d ca2b c43d
00000020: a1bf fcbd deba bebd 8742 2f3e ffe8 8cbe
00000030: 1b6a a8be f9ee 37be 13b2 03bd cd74 11be

depthwiseConv.1.running_mean f4 [16]
0.05534409 -0.049594905 -0.0015404325 -0.0667715 -0.022055425 0.05792372 0.0026242556 0.018822366
-0.0051562837 0.0026667225 -0.08711195 0.011164898 0.030349806 0.032047994 -0.13462362 -0.06437184
00000000: 7cb0 623d 0724 4bbd 56e8 c9ba 7fbf 88bd
00000010: 94ad b4bc 6c41 6d3d b4fb 2b3b 5d31 9a3c
00000020: 0bf6 a8bb 2ec4 2e3b c067 b2bd faec 363c
00000030: 28a0 f83c c244 033d c6da 09be 62d5 83bd

depthwiseConv.1.running_var f4 [16]
0.003450377 0.003995324 0.0015365984 0.0041539636 0.005869796 0.0037793545 0.016353112 0.009862072
0.007020745 0.0022890216 0.009556598 0.013190418 0.011676048 0.024124557 0.027855795 0.0033027115
00000000: b81f 623b 35eb 823b b067 c93a f91d 883b
00000010: 6b57 c03b 0caf 773b f6f6 853c 8794 213c
00000020: 470e e63b 6903 163b 4793 1c3c 9f1c 583c
00000030: e54c 3f3c dda0 c53c d631 e43c 4e72 583b

separableConv.0.weight f4 [16, 1, 1, 16]
-0.18812495 -0.14918691 -0.37245253 0.108134665 -0.12302846 -0.013449951 0.05425157 -0.108743034
-0.10874945 -0.2092497 -0.02795808 -0.07526746 0.17349686 0.27680275 0.43757656 0.12961346
0.2619313 0.20444074 0.13815513 -0.0929409 0.1707443 0.12963037 0.068606146 0.05440681
0.29680023 -0.032694623 0.38557836 0.1642992 0.01654955 0.19244148 0.06615557 -0.15273246
0.15892194 0.07371538 0.014610375 0.44875273 0.1921419 0.2968187 0.097386755 0.07194346
0.27853718 -0.042971984 -0.25760207 0.12557968 0.0057198834 -0.059907388 0.47682077 -0.35007358
-0.48188978 0.14712936 -0.22715563 -0.06618451 -0.2071586 -0.17706834 -0.5816073 0.06474328
0.19263616 0.2239412 -0.06339222 0.21810164 -0.081196606 0.11274853 0.4268776 0.200552
0.013599192 0.14893515 0.15576671 0.13084328 0.15975381 -0.34077853 -0.44335544 -0.3305081
0.087816626 -0.23091772 0.21547863 0.28398028 -0.013292199 0.16851142 -0.24000077 -0.37803996
-0.03403708 0.20090695 -0.13979545 -0.1127301 0.12861046 0.16451064 0.12689862 0.11972846
0.0633774 -0.08423473 0.1279143 0.029474264 0.17399271 0.29687077 0.010935567 0.39394107
-0.14925775 -0.1819866 -0.07241946 -0.13574249 0.07051336 -0.031605937 -0.50315 -0.35021523
-0.42979208 -0.033689544 -0.024794793 0.46526322 0.33901322 0.38330966 0.15221131 0.25474694
-0.042662133 -0.1617903 -0.28788874 -0.26697662 0.009360767 -0.034020513 0.12384368 0.5378975
0.4245955 0.06713731 -0.11777919 0.028727377 0.0017783756 -0.25404334 0.13651435 -0.42726344
0.29196593 -0.047825273 -0.117898546 0.058634493 -0.30008245 0.0835266 0.3174053 0.060410816
0.4549631 0.22517885 -0.024442693 0.10571742 -0.19632745 -0.044374283 -0.09264058 -0.13934217
0.035508182 -0.47439247 -0.3750126 -0.23027931 -0.20956166 0.10071604 0.19754246 -0.17755368
-0.039868943 0.08748906 -0.024953745 0.13932711 0.09709746 0.31501377 -0.18603691 0.3788113
-0.12323157 0.029957889 -0.11373882 -0.2463359 -0.012494603 -0.17503144 -0.13823014 0.28373146
0.2710744 0.19434604 0.1425637 0.19251536 0.10791278 0.055465814 -0.4271167 -0.52272654
0.08737754 0.301539 0.12707034 0.06486144 0.20385529 0.006010635 0.05767468 -0.09894331
0.017468678 0.31085122 0.20712028 -0.08089618 0.051921878 0.109516844 -0.24140917 0.33090448
-0.29724208 -0.058791127 0.08416756 0.088404045 -0.10174264 -0.28392684 -0.11625356 -0.2245034
0.086809866 -0.06882779 -0.25482675 0.0020563565 -0.13561656 0.14782718 0.28348753 0.14374718
-0.25795752 -0.010216506 -0.14875676 0.24191497 -0.2599679 -0.10201258 -0.35262534 0.0418788
-0.18228243 -0.2380614 -0.33085346 0.10796328 0.13412578 -0.073844545 0.16038024 -0.22803299
-0.5285164 -0.27771947 0.14283623 -0.35046265 -0.3783261 0.030130036 -0.26776227 -0.14510268
-0.09923273 0.039086312 -0.115811415 -0.16263491 0.061699208 -0.06536222 0.14359444 0.055141494
-0.5318308 0.23472793 0.07853304 0.28239557 0.027686518 0.28465053 0.13099214 -0.027900068
-0.45100582 0.09420551 0.43817234 -0.08916378 -0.26433676 0.45443088 0.037670948 -0.20497818
00000000: d4a3 40be 74c4 18be 19b2 bebe b575 dd3d
00000010: 58f6 fbbd 2f5d 5cbc e536 5e3d abb4 debd
00000020: 08b8 debd 8e45 56be 5808 e5bc d325 9abd
00000030: 29a9 313e 17b9 8d3e 090a e03e 64b9 043e
00000040: dc1b 863e ea58 513e 8a78 0d3e cc57 bebd
00000050: 98d7 2e3e d3bd 043e 6181 8c3d add9 5e3d
00000060: 33f6 973e ccea 05bd 876a c53e 0d3e 283e
00000070: ec92 873c 610f 453e 927c 873d e665 1cbe
00000080: 6fbc 223e 17f8 963d 5b60 6f3c ebc2 e53e
00000090: d9c0 443e 9ff8 973e b572 c73d 1857 933d
000000a0: 6d9c 8e3e 6403 30bd 6be4 83be f697 003e
000000b0: dc6d bb3b 7361 75bd da21 f43e d83c b3be
000000c0: 42ba f6be 14a9 163e 7c9b 68be bf8b 87bd
000000d0: 6221 54be 6751 35be 37e4 14bf 2098 843d
000000e0: 6a42 453e d850 653e c8d3 81bd 0956 5f3e
000000f0: 684a a6bd b4e8 e63d b38f da3e 815d 4d3e
00000100: 25cf 5e3c 7582 183e 4f81 1f3e c8fb 053e
00000110: 8196 233e 867a aebe 7cff e2be 5c38 a9be
00000120: 34d9 b33d b275 6cbe 6ea6 5c3e dd65 913e
00000130: 86c7 59bc 428e 2c3e c3c2 75be 748e c1be
00000140: 776a 0bbd 8dba 4d3e 8a26 0fbe 0adf e6bd
00000150: 76b2 033e 7a75 283e b6f1 013e 3234 f53d
00000160: 03cc 813d 4283 acbd f7fb 023e 0374 f13c
00000170: 252b 323e 72ff 973e 182b 333c a5b2 c93e
00000180: 06d7 18be b25a 3abe a750 94bd 1400 0bbe
00000190: 4f69 903d 3a75 01bd 70ce 00bf 694f b3be
000001a0: b50d dcbe 0cfe 09bd 731e cbbc fb36 ee3e
000001b0: 2493 ad3e 2a41 c43e 48dd 1b3e 316e 823e
000001c0: 7dbe 2ebd 5bac 25be 2766 93be 29b1 88be
000001d0: e75d 193c 1859 0bbd c1a1 fd3d a7b3 093f
000001e0: 9564 d93e 497f 893d 3736 f1bd ad55 eb3c
000001f0: 6218 e93a f811 82be 6bca 0b3e 46c2 dabe
00000200: 8f7c 953e 6fe4 43bd cb74 f1bd b92a 703d
00000210: 68a4 99be fe0f ab3d f382 a23e 5571 773d
00000220: ecf0 e83e 4995 663e 0b3c c8bc 6082 d83d
00000230: 100a 49be cfc1 35bd 58ba bdbd b7af 0ebe
00000240: 0771 113d 92e3 f2be a701 c0be 57ce 6bbe
00000250: 5597 56be 3644 ce3d 9248 4a3e a2d0 35be
00000260: 9e4d 23bd 772d b33d cc6b ccbc c4ab 0e3e
00000270: 08db c63d 7c49 a13e 7680 3ebe 8ef3 c13e
00000280: d560 fcbd 3f6a f53c e6ef e8bd 7a3f 7cbe
00000290: 2ab6 4cbc 713b 33be 348c 0dbe 4045 913e
000002a0: 44ca 8a3e a602 473e 38fc 113e bf22 453e
000002b0: 6001 dd3d 1f30 633d 0aaf dabe 68d1 05bf
000002c0: fff2 b23d 5263 9a3e ba1e 023e 13d6 843d
000002d0: 71bf 503e dcf4 c43b 493c 6c3d caa2 cabd
000002e0: 791a 8f3c e427 9f3e 5717 543e e5ac a5bd
000002f0: 09ac 543d 5e4a e03d f733 77be 506c a93e
00000300: 1d30 98be f7ce 70bd 0b60 ac3d 2e0d b53d
00000310: 725e d0bd dc5e 91be 5916 eebd 38e4 65be
00000320: 5fc9 b13d 96f5 8cbd a778 82be f0c3 063b
00000330: 11df 0abe 0260 173e 4725 913e 7632 133e
00000340: 0213 84be 2263 27bc b153 18be 8fb8 773e
00000350: 831a 85be f9eb d0bd 4f8b b4be 1b89 2b3d
00000360: 3fa8 3abe 5ec6 73be a065 a9be da1b dd3d
00000370: 4558 093e cf3b 97bd b83a 243e 7b81 69be
00000380: da4c 07bf 3f31 8ebe a943 123e d76f b3be
00000390: f5b3 c1be 44d3 f63c 2318 89be cc95 14be
000003a0: 883a cbbd f818 203d 892e edbd c489 26be
000003b0: 4fb8 7c3d a1dc 85bd 6c0a 133e 0cdc 613d
000003c0: 1026 08bf 855c 703e eed5 a03d 2796 903e
000003d0: d6ce e23c b7bd 913e ce22 063e af8e e4bc
000003e0: 3cea e6be d2ee c03d 2058 e03e 809b b6bd
000003f0: 2657 87be 2aab e83e da4c 1a3d cde5 51be

separableConv.1.weight f4 [16, 16, 1, 1]
0.20673452 -0.20001934 0.44295502 0.074863374 0.17925352 0.05080891 -0.012637761 0.117378384
0.24877518 -0.012397324 -0.026104024 -0.5055989 -0.16513725 -0.21288076 -0.04611836 0.026341623
-0.09049267 -0.24894808 0.40542838 0.17694265 0.01681406 0.19593555 0.079247646 0.20038453
0.2406368 -0.2870419 0.09613952 -0.45290908 -0.22766119 -0.06036608 0.0970427 -0.22261873
0.4615825 -0.275526 0.18811186 -0.060947575 -0.009505528 -0.20382497 -0.44753668 0.13215572
0.28531116 0.06987388 0.015113106 -0.18004858 -0.13310327 -0.29760566 -0.066760466 0.07244763
0.08974562 0.054609757 0.03265394 0.2863202 -0.017483708 0.007311797 0.6437243 0.38985628
-0.29422387 0.041525565 0.43294173 -0.034647245 -0.031694993 -0.15492415 -0.19271034 -0.2318653
-0.1532289 -0.088849865 0.016815864 -0.045478188 -0.52862966 0.008557694 0.16056524 0.19521512
0.22776572 -0.026784182 0.5851891 -0.004199306 0.17047156 -0.0007095849 -0.22258486 -0.25949576
0.42398557 -0.251414 -0.040081225 0.29819623 0.02877797 -0.11958957 -0.40864933 -0.166317
0.28228357 0.2770389 -0.007594754 0.048857518 0.07118231 -0.22190773 -0.14239538 0.2049533
0.1784791 -0.29404306 0.39553934 -0.05088926 0.028659813 -0.17471296 0.18441786 0.13551706
-0.028424613 -0.00067760097 0.06873559 -0.38506803 0.032776322 -0.30889744 -0.26445514 0.09614387
-0.33126688 0.05362705 0.1337167 -0.51201403 0.10445339 -0.015018565 0.2605724 -0.5141107
0.011572926 -0.16493855 0.020377941 0.075362936 0.23998389 0.029037934 0.39758247 0.03886554
-0.08538515 0.061274275 0.020020736 0.043342132 -0.05333114 -0.1095643 0.68821454 0.3117689
-0.2634782 0.023965241 0.35173652 -0.054285765 0.12562825 -0.0768222 -0.18100673 -0.10951905
0.008148236 -0.26236826 0.078676805 0.49354398 0.078348294 0.17437519 0.016887221 -0.23953296
0.10843421 0.64219314 -0.034361925 0.09197811 -0.13747814 0.1244208 -0.012843201 0.2543979
0.16823685 -0.06788422 -0.35876855 0.21835181 -0.08924945 -0.29584 -0.0060979184 -0.38956863
-0.054838557 0.5580214 -0.13347629 0.049446587 0.43290603 -0.13401943 0.053398166 0.10349954
0.24135524 -0.024981884 -0.13013937 0.13021518 -0.010324527 -0.53165835 0.23087241 0.2633654
0.23020753 0.059389677 -0.28449887 0.14910202 0.10736435 -0.122160226 -0.2704924 -0.36827487
-0.016835174 0.20773704 -0.30488163 0.17500111 -0.41613826 -0.08388742 -0.01532714 0.124022745
0.01824767 0.07609367 -0.1931668 0.055063095 0.094163 0.1634661 0.09686855 -0.92724806
-0.016396401 0.20434795 -0.20091252 0.046003245 -0.47178838 0.023483511 0.09981357 0.1605965
0.067551404 -0.119878024 -0.06278363 0.07126635 0.19024232 0.110389985 0.054521807 -0.911427
-0.045951627 -0.37608612 -0.00078019995 0.6825295 0.040766194 0.1467297 -0.009052314 -0.29143745
0.21582617 0.4752838 -0.08657576 0.07817577 -0.22150771 0.16931538 0.12387838 0.20001042
-0.0839052 0.020164873 0.15199624 -0.25353786 -0.42821214 0.14469643 -0.015820628 -0.0032177875
0.17878206 -0.12288775 -0.0833228 0.011823385 -0.14025655 0.06666176 0.33548287 -0.6597404
00000000: 37b2 533e dfd1 4cbe 00cb e23e f851 993d
00000010: 3c8e 373e 011d 503d 9d0e 4fbc 1464 f03d
00000020: ecbe 7e3e 251e 4bbc 1bd8 d5bc ee6e 01bf
00000030: bd19 29be 6afd 59be 9be6 3cbd 63ca d73c
00000040: 3954 b9bd 3fec 7ebe 4f94 cf3e 7430 353e
00000050: a4bd 893c 54a3 483e 974c a23d 9a31 4d3e
00000060: 7e69 763e 28f7 92be cce4 c43d b3e3 e7be
00000070: 0420 69be 6c42 77bd 53be c63d 2af6 63be
00000080: 8b54 ec3e be11 8dbe 65a0 403e 2aa4 79bd
00000090: 13bd 1bbc 7eb7 50be 8723 e5be d453 073e
000000a0: 4e14 923e 091a 8f3d f69c 773c a85e 38be
000000b0: 394c 08be c55f 98be b6b9 88bd 6c5f 943d
000000c0: 8dcc b73d 7bae 5f3d 23c0 053d 9098 923e
000000d0: fe39 8fbc cc97 ef3b 1ecb 243f 3e9b c73e
000000e0: 83a4 96be b616 2a3d 8aaa dd3e 45ea 0dbd
000000f0: 9cd2 01bd 70a4 1ebe dc55 45be 196e 6dbe
00000100: 09e8 1cbe ebf6 b5bd 6cc1 893c 5647 3abd
00000110: 4654 07bf 9235 0c3c 376b 243e 79e6 473e
00000120: 6b3b 693e 806a dbbc f4ce 153f 559a 89bb
00000130: 1990 2e3e 7003 3aba 49ed 63be a1dc 84be
00000140: a314 d93e 56b9 80be 362c 24bd 2dad 983e
00000150: c7bf eb3c 60eb f4bd 7c3a d1be 014f 2abe
00000160: 7987 903e 0bd8 8d3e 6add f8bb d21e 483d
00000170: 08c8 913d c83b 63be 18d0 11be 47df 513e
00000180: 3ac3 363e d08c 96be 2284 ca3e 4271 50bd
00000190: fcc7 ea3c f4e7 32be 09d8 3c3e fcc4 0a3e
000001a0: bcda e8bc 08a1 31ba 3fc5 8c3d a327 c5be
000001b0: 7740 063d ce27 9ebe aa66 87be 14e7 c43d
000001c0: d09b a9be 0aa8 5b3d 08ed 083e 5a13 03bf
000001d0: a9eb d53d 6d10 76bc bf69 853e c29c 03bf
000001e0: 5f9c 3d3c a7e5 28be a4ef a63c e257 9a3d
000001f0: 56be 753e f6e0 ed3c ee8f cb3e 7931 1f3d
00000200: 69de aebd bcfa 7a3d 8702 a43c 8587 313d
00000210: c171 5abd 3f63 e0bd d42e 303f 2ca0 9f3e
00000220: 9de6 86be c152 c43c cf16 b43e c05a 5ebd
00000230: b1a4 003e f554 9dbd d459 39be 864b e0bd
00000240: 2e80 053c 2255 86be 4e21 a13d ccb1 fc3e
00000250: 1275 a03d 698f 323e 1257 8a3c 2148 75be
00000260: c112 de3d c566 243f 17bf 0cbd 055f bc3d
00000270: 12c7 0cbe 55d0 fe3d 4a6c 52bc 7140 823e
00000280: 4846 2c3e e206 8bbd 83b0 b7be 9e97 5f3e
00000290: 6ac8 b6bd 5778 97be 0cd1 c7bb 8a75 c7be
000002a0: 659e 60bd 7eda 0e3f 02ae 08be 8188 4a3d
000002b0: dca5 dd3e 643c 09be 09b8 5a3d 91f7 d33d
000002c0: d425 773e cfa6 ccbc 4143 05be 2157 053e
000002d0: 3428 29bc c31a 08bf d169 6c3e d4d7 863e
000002e0: 86bb 6b3e 9742 733d d6a9 91be 33ae 183e
000002f0: d7e1 db3d 242f fabd fb7d 8abe 868e bcbe
00000300: ebe9 89bc 05b9 543e 7219 9cbe 7e33 333e
00000310: 1310 d5be 2bcd abbd af1e 7bbc a3ff fd3d
00000320: 237c 953c 00d7 9b3d 85cd 45be d789 613d
00000330: 88d8 c03d a863 273e 0563 c63d 2160 6dbf
00000340: bf51 86bc 9740 513e 03bc 4dbe e66d 3c3d
00000350: 3f8e f1be 7e60 c03c 0f6b cc3d 6973 243e
00000360: 6458 8a3d 9c82 f5bd b494 80bd 18f4 913d
00000370: e2ce 423e 2514 e23d 4252 5f3d 4853 69bf
00000380: c637 3cbd 5c8e c0be 5586 4cba 41ba 2e3f
00000390: 74fa 263d 4f40 163e 2850 14bc 4a37 95be
000003a0: 8901 5d3e 6658 f33e a24e b1bd 9e1a a03d
000003b0: ebd2 62be 0361 2d3e f3b3 fd3d 88cf 4c3e
000003c0: 7dd6 abbd ce30 a53c e7a4 1b3e b7cf 81be
000003d0: 9f3e dbbe 4d2b 143e 439a 81bc 84e1 52bb
000003e0: a512 373e 93ac fbbd 25a5 aabd dfb6 413c
000003f0: 6a9f 0fbe f685 883d 69c4 ab3e bfe4 28bf

separableConv.2.weight f4 [16]
2.2955744 2.0463572 1.7824233 2.359088 2.0190554 1.7922876 1.9895935 1.6946794
2.5725324 2.259309 2.1436741 2.0080185 2.0935507 2.2494411 2.0507574 1.8837217
00000000: b1ea 1240 84f7 0240 7226 e43f 4cfb 1640
00000010: 3438 0140 ae69 e53f 00ab fe3f 41eb d83f
00000020: 5fa4 2440 8598 1040 f531 0940 6083 0040
00000030: bcfc 0540 d8f6 0f40 9c3f 0340 cb1d f13f

separableConv.2.bias f4 [16]
-0.031176675 0.0133928405 0.16188855 0.0072872015 0.22272013 0.11741234 0.013980597 -0.4160004
-0.15250993 -0.2284493 -0.6240197 0.11983652 -0.2665608 -0.11051874 -0.34325376 0.1484972
00000000: 3a66 ffbc a56d 5b3c 1dc6 253e 7ac9 ee3b
00000010: bf10 643e e275 f03d e00e 653c 01fe d4be
00000020: 902b 1cbe 9dee 69be c1bf 1fbf d96c f53d
00000030: a87a 88be a657 e2bd f5be afbe a60f 183e

separableConv.2.running_mean f4 [16]
0.13758874 0.06588729 0.15751435 -0.03465024 0.03788884 0.1155584 0.15811831 -0.13703996
-0.067176454 0.019786153 -0.14470391 0.07909794 -0.10534722 -0.06092644 -0.022455417 0.0015987165
00000000: 10e4 0c3e eaef 863d 714b 213e 69ed 0dbd
00000010: 5431 1b3d e2a9 ec3d c4e9 213e 3454 0cbe
00000020: cf93 89bd 9216 a23c 432d 14be 1afe a13d
00000030: 49c0 d7bd 018e 79bd 6cf4 b7bc 068c d13a

separableConv.2.running_var f4 [16]
0.6871163 0.75118834 0.8116606 1.4740472 1.2253089 0.9080818 0.7727622 0.86361444
1.2734721 0.9609111 1.208991 0.65059614 0.91082615 0.8599481 1.1865964 0.7586308
00000000: dbe6 2f3f e14d 403f fdc8 4f3f 94ad bc3f
00000010: ecd6 9c3f 0d78 683f bed3 453f d615 5d3f
00000020: 2201 a33f 45fe 753f 38c0 9a3f 788d 263f
00000030: e72b 693f 8f25 5c3f 64e2 973f a135 423f

Dense.weight f4 [3, 64]
-0.8195893 -0.054271452 0.47417536 0.47183117 -0.46668902 0.018356867 0.21763551 0.7090597
-0.40492705 0.35380638 0.3328555 0.20636362 -0.0387651 0.42466515 0.13866498 0.056143213
0.74175817 0.29017308 0.11678596 0.20077863 -0.38969162 0.43193296 0.5204927 -0.13737436
-0.24117476 0.08549443 0.5295705 0.3548365 0.5145186 -0.7632838 -0.1793408 0.12790439
0.3146679 0.29320967 0.065647416 0.13756415 -0.24776909 0.27696225 0.8471362 -0.4062355
-0.037717912 0.63681346 0.40424684 -0.9716412 0.20541124 0.5382363 0.033870958 -0.024156624
0.750446 0.62342715 -0.31681708 -0.27052557 1.2210577 0.36380854 -0.41121274 -0.07383848
-0.28904065 0.18450487 0.6324046 -0.39194164 0.54854774 0.09177485 -0.18451607 0.37183478
0.35488504 0.097124815 -0.19163667 -0.25778574 -0.17716083 0.20740746 -0.15306644 -0.40871498
0.30423236 -0.25800276 -0.43232095 0.05888068 0.02573852 0.3860748 -0.3207548 -0.5978204
-0.5517039 0.32833472 -0.0759822 -0.23047563 0.23404375 -0.28470898 -0.4826692 0.06852457
0.46086565 0.21423787 -0.25069568 -0.24255288 -0.62661016 0.08455381 0.15962386 -0.00859544
-0.0193846 0.38040793 -0.27311644 -0.4605568 0.09239703 -0.122299574 -0.35822335 0.2870133
0.19521634 -0.47655162 -0.11147278 0.33646324 0.28638396 -0.07353375 -0.018067436 -0.08711079
-0.34585845 -0.40281895 0.19199876 0.013114576 -0.90340394 -9.491763e-05 0.0015874788 -0.015906377
-0.10833457 -0.24999619 -0.32242754 0.1570803 -1.1354975 -0.075429484 0.04653953 -0.010204909
0.34095728 0.10709217 -0.15930317 -0.47843283 0.75484884 -0.018812986 -0.03230946 -0.3883803
0.07413903 -0.21897127 -0.059027653 -0.45576364 0.009401622 -1.1752704 0.24402325 0.16887109
-0.28133556 -0.95034635 0.20280631 -0.14114575 0.1250911 -0.34840193 -0.14954033 -0.21470955
-0.33580366 -0.2523612 -0.18210715 -0.2058461 -0.13174263 0.5219602 -0.21065687 -0.09434892
-0.33618352 -1.1607631 0.05936482 0.28647807 0.23448664 -0.09499672 -0.36659294 0.33812362
-0.33312446 -0.20485616 -0.4278084 0.4960216 -0.84550107 -0.51464665 0.12153382 0.16774367
-0.35051605 -0.3577477 0.21634884 0.17393205 -0.47106656 -0.24415885 0.10005808 0.08479329
0.34369972 -0.16428679 -0.5932187 0.22953437 0.15359572 0.09359258 0.062127706 -0.57498723
00000000: 9bd0 51bf be4b 5ebd 1dc7 f23e db93 f13e
00000010: ddf1 eebe 2461 963c d8db 5e3e f084 353f
00000020: 9952 cfbe 1c26 b53e 096c aa3e fc50 533e
00000030: 27c8 1ebd b66d d93e 31fe 0d3e 6df6 653d
00000040: dde3 3d3f 9191 943e 7a2d ef3d ea98 4d3e
00000050: a985 c7be 5126 dd3e 023f 053f ddab 0cbe
00000060: 84f6 76be b417 af3d ef91 073f 21ad b53e
00000070: 7eb7 033f 9166 43bf 1da5 37be 5ef9 023e
00000080: 271c a13e 941f 963e 2772 863d 9edd 0c3e
00000090: 2eb7 7dbe ffcd 8d3e ebdd 583f 19fe cfbe
000000a0: 197e 1abd 3506 233f 71f9 ce3e 7abd 78bf
000000b0: 5357 523e dbc9 093f 46bc 0a3d 1de4 c5bc
000000c0: 3b1d 403f ec98 1f3f d935 a2be 5482 8abe
000000d0: 9e4b 9c3f 1d45 ba3e 7a8a d2be a138 97bd
000000e0: 23fd 93be d8ee 3c3e 45e5 213f 93ac c8be
000000f0: a06d 0c3f 74f4 bb3d c8f1 3cbe 2161 be3e
00000100: 7eb3 b53e 60e9 c63d 673c 44be 7efc 83be
00000110: a669 35be 9f62 543e 73bd 1cbe 1743 d1be
00000120: 58c4 9b3e f018 84be 2c59 ddbe de2c 713d
00000130: 97d9 d23c 99ab c53e f939 a4be c20a 19bf
00000140: 773c 0dbf 7d1b a83e 8e9c 9bbd ce01 6cbe
00000150: 2aa9 6f3e 60c5 91be 6b20 f7be 9c56 8c3d
00000160: 95f6 eb3e 2c61 5b3e 2f5b 80be c85f 78be
00000170: 8669 20bf 8c2a ad3d 7074 233e e3d3 0cbc
00000180: 74cc 9ebc d4c4 c23e ebd5 8bbe 1ace ebbe
00000190: a73a bd3d 3378 fabd 0d69 b7be 68f3 923e
000001a0: cbe6 473e 93fe f3be d74b e4bd e944 ac3e
000001b0: eba0 923e dd98 96bd 2902 94bc 2467 b2bd
000001c0: 5c14 b1be 493e cebe 539b 443e 85de 563c
000001d0: 7b45 67bf 840e c7b8 f312 d03a 174e 82bc
000001e0: 84de ddbd 00ff 7fbe 3915 a5be a8d9 203e
000001f0: fb57 91bf c67a 9abd 3ca0 3e3d 7e32 27bc
00000200: f491 ae3e 2453 db3d 5f20 23be 26f5 f4be
00000210: c63d 413f b11d 9abc ed56 04bd c8d9 c6be
00000220: 34d6 973d 013a 60be fbc6 71bd da59 e9be
00000230: 4309 1a3c 436f 96bf 3be1 793e 8bec 2c3e
00000240: 370b 90be e649 73bf 75ac 4f3e 8388 10be
00000250: e217 003e bd61 b2be 1a21 19be d2dc 5bbe
00000260: 75ee abbe 7d35 81be 4c7a 3abe 52c9 52be
00000270: 8ae7 06be 2f9f 053f 6fb6 57be 023a c1bd
00000280: 3f20 acbe e393 94bf 8728 733d 41ad 923e
00000290: 441d 703e a48d c2bd 12b2 bbbe 8a1e ad3e
000002a0: 4a8f aabe d0c5 51be b409 dbbe 8bf6 fd3e
000002b0: c272 58bf e2bf 03bf b9e6 f83d ffc4 2b3e
000002c0: d776 b3be b52a b7be 8d8a 5d3e 3e1b 323e
000002d0: a32f f1be c704 7abe 40eb cc3d 1ba8 ad3d
000002e0: 69f9 af3e cc3a 28be 2edd 17bf 0f0b 6b3e
000002f0: 3248 1d3e 77ad bf3d 9f79 7e3d 5d32 13bf

Dense.bias f4 [3]
1.1799517 -0.49447638 -0.81130654
00000000: a808 973f 022c fdbe c9b1 4fbf
